{"format": "graph-model", "generatedBy": "2.13.0", "convertedBy": "TensorFlow.js Converter v4.11.0", "signature": {"inputs": {"input": {"name": "input:0", "dtype": "DT_FLOAT", "tensorShape": {"dim": [{"size": "-1"}, {"size": "128"}, {"size": "256"}, {"size": "3"}]}}}, "outputs": {"output": {"name": "Identity:0", "dtype": "DT_FLOAT", "tensorShape": {"dim": [{"size": "-1"}, {"size": "128"}, {"size": "256"}, {"size": "1"}]}}}}, "modelTopology": {"node": [{"name": "StatefulPartitionedCall/model_4/tf.math.multiply_101/Mul/y", "op": "Const", "attr": {"value": {"tensor": {"dtype": "DT_FLOAT", "tensorShape": {}}}, "dtype": {"type": "DT_FLOAT"}}}, {"name": "StatefulPartitionedCall/model_4/expanded_conv_11/squeeze_excite/AvgPool/Mean/reduction_indices", "op": "Const", "attr": {"value": {"tensor": {"dtype": "DT_INT32", "tensorShape": {"dim": [{"size": "2"}]}}}, "dtype": {"type": "DT_INT32"}}}, {"name": "StatefulPartitionedCall/model_4/expanded_conv_11/squeeze_excite/Conv/Conv2D/ReadVariableOp", "op": "Const", "attr": {"value": {"tensor": {"dtype": "DT_FLOAT", "tensorShape": {"dim": [{"size": "1"}, {"size": "1"}, {"size": "672"}, {"size": "168"}]}}}, "dtype": {"type": "DT_FLOAT"}}}, {"name": "StatefulPartitionedCall/model_4/expanded_conv_11/squeeze_excite/Conv/BiasAdd/ReadVariableOp", "op": "Const", "attr": {"value": {"tensor": {"dtype": "DT_FLOAT", "tensorShape": {"dim": [{"size": "168"}]}}}, "dtype": {"type": "DT_FLOAT"}}}, {"name": "StatefulPartitionedCall/model_4/expanded_conv_11/squeeze_excite/Conv_1/Conv2D/ReadVariableOp", "op": "Const", "attr": {"value": {"tensor": {"dtype": "DT_FLOAT", "tensorShape": {"dim": [{"size": "1"}, {"size": "1"}, {"size": "168"}, {"size": "672"}]}}}, "dtype": {"type": "DT_FLOAT"}}}, {"name": "StatefulPartitionedCall/model_4/expanded_conv_11/squeeze_excite/Conv_1/BiasAdd/ReadVariableOp", "op": "Const", "attr": {"value": {"tensor": {"dtype": "DT_FLOAT", "tensorShape": {"dim": [{"size": "672"}]}}}, "dtype": {"type": "DT_FLOAT"}}}, {"name": "StatefulPartitionedCall/model_4/tf.__operators__.add_101/y", "op": "Const", "attr": {"value": {"tensor": {"dtype": "DT_FLOAT", "tensorShape": {}}}, "dtype": {"type": "DT_FLOAT"}}}, {"name": "StatefulPartitionedCall/model_4/tf.math.multiply_100/Mul/y", "op": "Const", "attr": {"value": {"tensor": {"dtype": "DT_FLOAT", "tensorShape": {}}}, "dtype": {"type": "DT_FLOAT"}}}, {"name": "StatefulPartitionedCall/model_4/tf.math.multiply_99/Mul/y", "op": "Const", "attr": {"value": {"tensor": {"dtype": "DT_FLOAT", "tensorShape": {}}}, "dtype": {"type": "DT_FLOAT"}}}, {"name": "StatefulPartitionedCall/model_4/tf.math.multiply_98/Mul/y", "op": "Const", "attr": {"value": {"tensor": {"dtype": "DT_FLOAT", "tensorShape": {}}}, "dtype": {"type": "DT_FLOAT"}}}, {"name": "StatefulPartitionedCall/model_4/expanded_conv_10/squeeze_excite/AvgPool/Mean/reduction_indices", "op": "Const", "attr": {"value": {"tensor": {"dtype": "DT_INT32", "tensorShape": {"dim": [{"size": "2"}]}}}, "dtype": {"type": "DT_INT32"}}}, {"name": "StatefulPartitionedCall/model_4/expanded_conv_10/squeeze_excite/Conv/Conv2D/ReadVariableOp", "op": "Const", "attr": {"value": {"tensor": {"dtype": "DT_FLOAT", "tensorShape": {"dim": [{"size": "1"}, {"size": "1"}, {"size": "480"}, {"size": "120"}]}}}, "dtype": {"type": "DT_FLOAT"}}}, {"name": "StatefulPartitionedCall/model_4/expanded_conv_10/squeeze_excite/Conv/BiasAdd/ReadVariableOp", "op": "Const", "attr": {"value": {"tensor": {"dtype": "DT_FLOAT", "tensorShape": {"dim": [{"size": "120"}]}}}, "dtype": {"type": "DT_FLOAT"}}}, {"name": "StatefulPartitionedCall/model_4/expanded_conv_10/squeeze_excite/Conv_1/Conv2D/ReadVariableOp", "op": "Const", "attr": {"value": {"tensor": {"dtype": "DT_FLOAT", "tensorShape": {"dim": [{"size": "1"}, {"size": "1"}, {"size": "120"}, {"size": "480"}]}}}, "dtype": {"type": "DT_FLOAT"}}}, {"name": "StatefulPartitionedCall/model_4/expanded_conv_10/squeeze_excite/Conv_1/BiasAdd/ReadVariableOp", "op": "Const", "attr": {"value": {"tensor": {"dtype": "DT_FLOAT", "tensorShape": {"dim": [{"size": "480"}]}}}, "dtype": {"type": "DT_FLOAT"}}}, {"name": "StatefulPartitionedCall/model_4/tf.__operators__.add_98/y", "op": "Const", "attr": {"value": {"tensor": {"dtype": "DT_FLOAT", "tensorShape": {}}}, "dtype": {"type": "DT_FLOAT"}}}, {"name": "StatefulPartitionedCall/model_4/tf.math.multiply_97/Mul/y", "op": "Const", "attr": {"value": {"tensor": {"dtype": "DT_FLOAT", "tensorShape": {}}}, "dtype": {"type": "DT_FLOAT"}}}, {"name": "StatefulPartitionedCall/model_4/tf.math.multiply_96/Mul/y", "op": "Const", "attr": {"value": {"tensor": {"dtype": "DT_FLOAT", "tensorShape": {}}}, "dtype": {"type": "DT_FLOAT"}}}, {"name": "StatefulPartitionedCall/model_4/tf.math.multiply_95/Mul/y", "op": "Const", "attr": {"value": {"tensor": {"dtype": "DT_FLOAT", "tensorShape": {}}}, "dtype": {"type": "DT_FLOAT"}}}, {"name": "StatefulPartitionedCall/model_4/tf.math.multiply_94/Mul/y", "op": "Const", "attr": {"value": {"tensor": {"dtype": "DT_FLOAT", "tensorShape": {}}}, "dtype": {"type": "DT_FLOAT"}}}, {"name": "StatefulPartitionedCall/model_4/tf.math.multiply_93/Mul/y", "op": "Const", "attr": {"value": {"tensor": {"dtype": "DT_FLOAT", "tensorShape": {}}}, "dtype": {"type": "DT_FLOAT"}}}, {"name": "StatefulPartitionedCall/model_4/tf.math.multiply_92/Mul/y", "op": "Const", "attr": {"value": {"tensor": {"dtype": "DT_FLOAT", "tensorShape": {}}}, "dtype": {"type": "DT_FLOAT"}}}, {"name": "StatefulPartitionedCall/model_4/tf.math.multiply_91/Mul/y", "op": "Const", "attr": {"value": {"tensor": {"dtype": "DT_FLOAT", "tensorShape": {}}}, "dtype": {"type": "DT_FLOAT"}}}, {"name": "StatefulPartitionedCall/model_4/tf.math.multiply_90/Mul/y", "op": "Const", "attr": {"value": {"tensor": {"dtype": "DT_FLOAT", "tensorShape": {}}}, "dtype": {"type": "DT_FLOAT"}}}, {"name": "StatefulPartitionedCall/model_4/tf.math.multiply_89/Mul/y", "op": "Const", "attr": {"value": {"tensor": {"dtype": "DT_FLOAT", "tensorShape": {}}}, "dtype": {"type": "DT_FLOAT"}}}, {"name": "StatefulPartitionedCall/model_4/tf.math.multiply_88/Mul/y", "op": "Const", "attr": {"value": {"tensor": {"dtype": "DT_FLOAT", "tensorShape": {}}}, "dtype": {"type": "DT_FLOAT"}}}, {"name": "StatefulPartitionedCall/model_4/tf.math.multiply_87/Mul/y", "op": "Const", "attr": {"value": {"tensor": {"dtype": "DT_FLOAT", "tensorShape": {}}}, "dtype": {"type": "DT_FLOAT"}}}, {"name": "StatefulPartitionedCall/model_4/expanded_conv_5/squeeze_excite/AvgPool/Mean/reduction_indices", "op": "Const", "attr": {"value": {"tensor": {"dtype": "DT_INT32", "tensorShape": {"dim": [{"size": "2"}]}}}, "dtype": {"type": "DT_INT32"}}}, {"name": "StatefulPartitionedCall/model_4/expanded_conv_5/squeeze_excite/Conv/Conv2D/ReadVariableOp", "op": "Const", "attr": {"value": {"tensor": {"dtype": "DT_FLOAT", "tensorShape": {"dim": [{"size": "1"}, {"size": "1"}, {"size": "120"}, {"size": "32"}]}}}, "dtype": {"type": "DT_FLOAT"}}}, {"name": "StatefulPartitionedCall/model_4/expanded_conv_5/squeeze_excite/Conv/BiasAdd/ReadVariableOp", "op": "Const", "attr": {"value": {"tensor": {"dtype": "DT_FLOAT", "tensorShape": {"dim": [{"size": "32"}]}}}, "dtype": {"type": "DT_FLOAT"}}}, {"name": "StatefulPartitionedCall/model_4/expanded_conv_5/squeeze_excite/Conv_1/Conv2D/ReadVariableOp", "op": "Const", "attr": {"value": {"tensor": {"dtype": "DT_FLOAT", "tensorShape": {"dim": [{"size": "1"}, {"size": "1"}, {"size": "32"}, {"size": "120"}]}}}, "dtype": {"type": "DT_FLOAT"}}}, {"name": "StatefulPartitionedCall/model_4/expanded_conv_5/squeeze_excite/Conv_1/BiasAdd/ReadVariableOp", "op": "Const", "attr": {"value": {"tensor": {"dtype": "DT_FLOAT", "tensorShape": {"dim": [{"size": "120"}]}}}, "dtype": {"type": "DT_FLOAT"}}}, {"name": "StatefulPartitionedCall/model_4/tf.__operators__.add_87/y", "op": "Const", "attr": {"value": {"tensor": {"dtype": "DT_FLOAT", "tensorShape": {}}}, "dtype": {"type": "DT_FLOAT"}}}, {"name": "StatefulPartitionedCall/model_4/tf.math.multiply_86/Mul/y", "op": "Const", "attr": {"value": {"tensor": {"dtype": "DT_FLOAT", "tensorShape": {}}}, "dtype": {"type": "DT_FLOAT"}}}, {"name": "StatefulPartitionedCall/model_4/expanded_conv_4/squeeze_excite/AvgPool/Mean/reduction_indices", "op": "Const", "attr": {"value": {"tensor": {"dtype": "DT_INT32", "tensorShape": {"dim": [{"size": "2"}]}}}, "dtype": {"type": "DT_INT32"}}}, {"name": "StatefulPartitionedCall/model_4/expanded_conv_4/squeeze_excite/Conv/Conv2D/ReadVariableOp", "op": "Const", "attr": {"value": {"tensor": {"dtype": "DT_FLOAT", "tensorShape": {"dim": [{"size": "1"}, {"size": "1"}, {"size": "120"}, {"size": "32"}]}}}, "dtype": {"type": "DT_FLOAT"}}}, {"name": "StatefulPartitionedCall/model_4/expanded_conv_4/squeeze_excite/Conv/BiasAdd/ReadVariableOp", "op": "Const", "attr": {"value": {"tensor": {"dtype": "DT_FLOAT", "tensorShape": {"dim": [{"size": "32"}]}}}, "dtype": {"type": "DT_FLOAT"}}}, {"name": "StatefulPartitionedCall/model_4/expanded_conv_4/squeeze_excite/Conv_1/Conv2D/ReadVariableOp", "op": "Const", "attr": {"value": {"tensor": {"dtype": "DT_FLOAT", "tensorShape": {"dim": [{"size": "1"}, {"size": "1"}, {"size": "32"}, {"size": "120"}]}}}, "dtype": {"type": "DT_FLOAT"}}}, {"name": "StatefulPartitionedCall/model_4/expanded_conv_4/squeeze_excite/Conv_1/BiasAdd/ReadVariableOp", "op": "Const", "attr": {"value": {"tensor": {"dtype": "DT_FLOAT", "tensorShape": {"dim": [{"size": "120"}]}}}, "dtype": {"type": "DT_FLOAT"}}}, {"name": "StatefulPartitionedCall/model_4/tf.__operators__.add_86/y", "op": "Const", "attr": {"value": {"tensor": {"dtype": "DT_FLOAT", "tensorShape": {}}}, "dtype": {"type": "DT_FLOAT"}}}, {"name": "StatefulPartitionedCall/model_4/tf.math.multiply_85/Mul/y", "op": "Const", "attr": {"value": {"tensor": {"dtype": "DT_FLOAT", "tensorShape": {}}}, "dtype": {"type": "DT_FLOAT"}}}, {"name": "StatefulPartitionedCall/model_4/expanded_conv_3/squeeze_excite/AvgPool/Mean/reduction_indices", "op": "Const", "attr": {"value": {"tensor": {"dtype": "DT_INT32", "tensorShape": {"dim": [{"size": "2"}]}}}, "dtype": {"type": "DT_INT32"}}}, {"name": "StatefulPartitionedCall/model_4/expanded_conv_3/squeeze_excite/Conv/Conv2D/ReadVariableOp", "op": "Const", "attr": {"value": {"tensor": {"dtype": "DT_FLOAT", "tensorShape": {"dim": [{"size": "1"}, {"size": "1"}, {"size": "72"}, {"size": "24"}]}}}, "dtype": {"type": "DT_FLOAT"}}}, {"name": "StatefulPartitionedCall/model_4/expanded_conv_3/squeeze_excite/Conv/BiasAdd/ReadVariableOp", "op": "Const", "attr": {"value": {"tensor": {"dtype": "DT_FLOAT", "tensorShape": {"dim": [{"size": "24"}]}}}, "dtype": {"type": "DT_FLOAT"}}}, {"name": "StatefulPartitionedCall/model_4/expanded_conv_3/squeeze_excite/Conv_1/Conv2D/ReadVariableOp", "op": "Const", "attr": {"value": {"tensor": {"dtype": "DT_FLOAT", "tensorShape": {"dim": [{"size": "1"}, {"size": "1"}, {"size": "24"}, {"size": "72"}]}}}, "dtype": {"type": "DT_FLOAT"}}}, {"name": "StatefulPartitionedCall/model_4/expanded_conv_3/squeeze_excite/Conv_1/BiasAdd/ReadVariableOp", "op": "Const", "attr": {"value": {"tensor": {"dtype": "DT_FLOAT", "tensorShape": {"dim": [{"size": "72"}]}}}, "dtype": {"type": "DT_FLOAT"}}}, {"name": "StatefulPartitionedCall/model_4/tf.__operators__.add_85/y", "op": "Const", "attr": {"value": {"tensor": {"dtype": "DT_FLOAT", "tensorShape": {}}}, "dtype": {"type": "DT_FLOAT"}}}, {"name": "StatefulPartitionedCall/model_4/tf.__operators__.add_88/y", "op": "Const", "attr": {"value": {"tensor": {"dtype": "DT_FLOAT", "tensorShape": {}}}, "dtype": {"type": "DT_FLOAT"}}}, {"name": "StatefulPartitionedCall/model_4/expanded_conv_6/depthwise/pad/Pad/paddings", "op": "Const", "attr": {"value": {"tensor": {"dtype": "DT_INT32", "tensorShape": {"dim": [{"size": "4"}, {"size": "2"}]}}}, "dtype": {"type": "DT_INT32"}}}, {"name": "StatefulPartitionedCall/model_4/tf.__operators__.add_89/y", "op": "Const", "attr": {"value": {"tensor": {"dtype": "DT_FLOAT", "tensorShape": {}}}, "dtype": {"type": "DT_FLOAT"}}}, {"name": "StatefulPartitionedCall/model_4/tf.__operators__.add_90/y", "op": "Const", "attr": {"value": {"tensor": {"dtype": "DT_FLOAT", "tensorShape": {}}}, "dtype": {"type": "DT_FLOAT"}}}, {"name": "StatefulPartitionedCall/model_4/tf.__operators__.add_91/y", "op": "Const", "attr": {"value": {"tensor": {"dtype": "DT_FLOAT", "tensorShape": {}}}, "dtype": {"type": "DT_FLOAT"}}}, {"name": "StatefulPartitionedCall/model_4/tf.__operators__.add_92/y", "op": "Const", "attr": {"value": {"tensor": {"dtype": "DT_FLOAT", "tensorShape": {}}}, "dtype": {"type": "DT_FLOAT"}}}, {"name": "StatefulPartitionedCall/model_4/tf.__operators__.add_93/y", "op": "Const", "attr": {"value": {"tensor": {"dtype": "DT_FLOAT", "tensorShape": {}}}, "dtype": {"type": "DT_FLOAT"}}}, {"name": "StatefulPartitionedCall/model_4/tf.__operators__.add_94/y", "op": "Const", "attr": {"value": {"tensor": {"dtype": "DT_FLOAT", "tensorShape": {}}}, "dtype": {"type": "DT_FLOAT"}}}, {"name": "StatefulPartitionedCall/model_4/tf.__operators__.add_95/y", "op": "Const", "attr": {"value": {"tensor": {"dtype": "DT_FLOAT", "tensorShape": {}}}, "dtype": {"type": "DT_FLOAT"}}}, {"name": "StatefulPartitionedCall/model_4/tf.__operators__.add_96/y", "op": "Const", "attr": {"value": {"tensor": {"dtype": "DT_FLOAT", "tensorShape": {}}}, "dtype": {"type": "DT_FLOAT"}}}, {"name": "StatefulPartitionedCall/model_4/tf.__operators__.add_97/y", "op": "Const", "attr": {"value": {"tensor": {"dtype": "DT_FLOAT", "tensorShape": {}}}, "dtype": {"type": "DT_FLOAT"}}}, {"name": "StatefulPartitionedCall/model_4/tf.__operators__.add_99/y", "op": "Const", "attr": {"value": {"tensor": {"dtype": "DT_FLOAT", "tensorShape": {}}}, "dtype": {"type": "DT_FLOAT"}}}, {"name": "StatefulPartitionedCall/model_4/tf.__operators__.add_100/y", "op": "Const", "attr": {"value": {"tensor": {"dtype": "DT_FLOAT", "tensorShape": {}}}, "dtype": {"type": "DT_FLOAT"}}}, {"name": "StatefulPartitionedCall/model_4/tf.__operators__.add_102/y", "op": "Const", "attr": {"value": {"tensor": {"dtype": "DT_FLOAT", "tensorShape": {}}}, "dtype": {"type": "DT_FLOAT"}}}, {"name": "StatefulPartitionedCall/model_4/up_sampling2d_8/mul", "op": "Const", "attr": {"value": {"tensor": {"dtype": "DT_INT32", "tensorShape": {"dim": [{"size": "2"}]}}}, "dtype": {"type": "DT_INT32"}}}, {"name": "StatefulPartitionedCall/model_4/expanded_conv_3/depthwise/pad/Pad/paddings", "op": "Const", "attr": {"value": {"tensor": {"dtype": "DT_INT32", "tensorShape": {"dim": [{"size": "4"}, {"size": "2"}]}}}, "dtype": {"type": "DT_INT32"}}}, {"name": "StatefulPartitionedCall/model_4/up_sampling2d_9/mul", "op": "Const", "attr": {"value": {"tensor": {"dtype": "DT_INT32", "tensorShape": {"dim": [{"size": "2"}]}}}, "dtype": {"type": "DT_INT32"}}}, {"name": "StatefulPartitionedCall/model_4/expanded_conv_1/depthwise/pad/Pad/paddings", "op": "Const", "attr": {"value": {"tensor": {"dtype": "DT_INT32", "tensorShape": {"dim": [{"size": "4"}, {"size": "2"}]}}}, "dtype": {"type": "DT_INT32"}}}, {"name": "StatefulPartitionedCall/model_4/up_sampling2d_10/mul", "op": "Const", "attr": {"value": {"tensor": {"dtype": "DT_INT32", "tensorShape": {"dim": [{"size": "2"}]}}}, "dtype": {"type": "DT_INT32"}}}, {"name": "StatefulPartitionedCall/model_4/tf.math.multiply_84/Mul/y", "op": "Const", "attr": {"value": {"tensor": {"dtype": "DT_FLOAT", "tensorShape": {}}}, "dtype": {"type": "DT_FLOAT"}}}, {"name": "StatefulPartitionedCall/model_4/tf.__operators__.add_84/y", "op": "Const", "attr": {"value": {"tensor": {"dtype": "DT_FLOAT", "tensorShape": {}}}, "dtype": {"type": "DT_FLOAT"}}}, {"name": "StatefulPartitionedCall/model_4/up_sampling2d_11/mul", "op": "Const", "attr": {"value": {"tensor": {"dtype": "DT_INT32", "tensorShape": {"dim": [{"size": "2"}]}}}, "dtype": {"type": "DT_INT32"}}}, {"name": "StatefulPartitionedCall/model_4/conv2d_46/Conv2D/ReadVariableOp", "op": "Const", "attr": {"value": {"tensor": {"dtype": "DT_FLOAT", "tensorShape": {"dim": [{"size": "1"}, {"size": "1"}, {"size": "16"}, {"size": "1"}]}}}, "dtype": {"type": "DT_FLOAT"}}}, {"name": "StatefulPartitionedCall/model_4/output/Conv2D/ReadVariableOp", "op": "Const", "attr": {"value": {"tensor": {"dtype": "DT_FLOAT", "tensorShape": {"dim": [{"size": "1"}, {"size": "1"}, {"size": "1"}, {"size": "1"}]}}}, "dtype": {"type": "DT_FLOAT"}}}, {"name": "input", "op": "Placeholder", "attr": {"shape": {"shape": {"dim": [{"size": "-1"}, {"size": "128"}, {"size": "256"}, {"size": "3"}]}}, "dtype": {"type": "DT_FLOAT"}}}, {"name": "StatefulPartitionedCall/model_4/Conv/Conv2D_weights", "op": "Const", "attr": {"value": {"tensor": {"dtype": "DT_FLOAT", "tensorShape": {"dim": [{"size": "3"}, {"size": "3"}, {"size": "3"}, {"size": "16"}]}}}, "dtype": {"type": "DT_FLOAT"}}}, {"name": "StatefulPartitionedCall/model_4/Conv/Conv2D_bn_offset", "op": "Const", "attr": {"value": {"tensor": {"dtype": "DT_FLOAT", "tensorShape": {"dim": [{"size": "16"}]}}}, "dtype": {"type": "DT_FLOAT"}}}, {"name": "StatefulPartitionedCall/model_4/expanded_conv/depthwise/depthwise_weights", "op": "Const", "attr": {"value": {"tensor": {"dtype": "DT_FLOAT", "tensorShape": {"dim": [{"size": "3"}, {"size": "3"}, {"size": "16"}, {"size": "1"}]}}}, "dtype": {"type": "DT_FLOAT"}}}, {"name": "StatefulPartitionedCall/model_4/expanded_conv/depthwise/depthwise_bn_offset", "op": "Const", "attr": {"value": {"tensor": {"dtype": "DT_FLOAT", "tensorShape": {"dim": [{"size": "16"}]}}}, "dtype": {"type": "DT_FLOAT"}}}, {"name": "StatefulPartitionedCall/model_4/expanded_conv/project/Conv2D_weights", "op": "Const", "attr": {"value": {"tensor": {"dtype": "DT_FLOAT", "tensorShape": {"dim": [{"size": "1"}, {"size": "1"}, {"size": "16"}, {"size": "16"}]}}}, "dtype": {"type": "DT_FLOAT"}}}, {"name": "StatefulPartitionedCall/model_4/expanded_conv/project/Conv2D_bn_offset", "op": "Const", "attr": {"value": {"tensor": {"dtype": "DT_FLOAT", "tensorShape": {"dim": [{"size": "16"}]}}}, "dtype": {"type": "DT_FLOAT"}}}, {"name": "StatefulPartitionedCall/model_4/expanded_conv_1/expand/Conv2D_weights", "op": "Const", "attr": {"value": {"tensor": {"dtype": "DT_FLOAT", "tensorShape": {"dim": [{"size": "1"}, {"size": "1"}, {"size": "16"}, {"size": "64"}]}}}, "dtype": {"type": "DT_FLOAT"}}}, {"name": "StatefulPartitionedCall/model_4/expanded_conv_1/expand/Conv2D_bn_offset", "op": "Const", "attr": {"value": {"tensor": {"dtype": "DT_FLOAT", "tensorShape": {"dim": [{"size": "64"}]}}}, "dtype": {"type": "DT_FLOAT"}}}, {"name": "StatefulPartitionedCall/model_4/expanded_conv_1/depthwise/depthwise_weights", "op": "Const", "attr": {"value": {"tensor": {"dtype": "DT_FLOAT", "tensorShape": {"dim": [{"size": "3"}, {"size": "3"}, {"size": "64"}, {"size": "1"}]}}}, "dtype": {"type": "DT_FLOAT"}}}, {"name": "StatefulPartitionedCall/model_4/expanded_conv_1/depthwise/depthwise_bn_offset", "op": "Const", "attr": {"value": {"tensor": {"dtype": "DT_FLOAT", "tensorShape": {"dim": [{"size": "64"}]}}}, "dtype": {"type": "DT_FLOAT"}}}, {"name": "StatefulPartitionedCall/model_4/expanded_conv_1/project/Conv2D_weights", "op": "Const", "attr": {"value": {"tensor": {"dtype": "DT_FLOAT", "tensorShape": {"dim": [{"size": "1"}, {"size": "1"}, {"size": "64"}, {"size": "24"}]}}}, "dtype": {"type": "DT_FLOAT"}}}, {"name": "StatefulPartitionedCall/model_4/depthwise_conv2d_28/depthwise_weights", "op": "Const", "attr": {"value": {"tensor": {"dtype": "DT_FLOAT", "tensorShape": {"dim": [{"size": "3"}, {"size": "3"}, {"size": "72"}, {"size": "1"}]}}}, "dtype": {"type": "DT_FLOAT"}}}, {"name": "StatefulPartitionedCall/model_4/expanded_conv_1/project/Conv2D_bn_offset", "op": "Const", "attr": {"value": {"tensor": {"dtype": "DT_FLOAT", "tensorShape": {"dim": [{"size": "24"}]}}}, "dtype": {"type": "DT_FLOAT"}}}, {"name": "StatefulPartitionedCall/model_4/expanded_conv_2/expand/Conv2D_weights", "op": "Const", "attr": {"value": {"tensor": {"dtype": "DT_FLOAT", "tensorShape": {"dim": [{"size": "1"}, {"size": "1"}, {"size": "24"}, {"size": "72"}]}}}, "dtype": {"type": "DT_FLOAT"}}}, {"name": "StatefulPartitionedCall/model_4/expanded_conv_2/expand/Conv2D_bn_offset", "op": "Const", "attr": {"value": {"tensor": {"dtype": "DT_FLOAT", "tensorShape": {"dim": [{"size": "72"}]}}}, "dtype": {"type": "DT_FLOAT"}}}, {"name": "StatefulPartitionedCall/model_4/expanded_conv_2/depthwise/depthwise_weights", "op": "Const", "attr": {"value": {"tensor": {"dtype": "DT_FLOAT", "tensorShape": {"dim": [{"size": "3"}, {"size": "3"}, {"size": "72"}, {"size": "1"}]}}}, "dtype": {"type": "DT_FLOAT"}}}, {"name": "StatefulPartitionedCall/model_4/expanded_conv_2/depthwise/depthwise_bn_offset", "op": "Const", "attr": {"value": {"tensor": {"dtype": "DT_FLOAT", "tensorShape": {"dim": [{"size": "72"}]}}}, "dtype": {"type": "DT_FLOAT"}}}, {"name": "StatefulPartitionedCall/model_4/expanded_conv_2/project/Conv2D_weights", "op": "Const", "attr": {"value": {"tensor": {"dtype": "DT_FLOAT", "tensorShape": {"dim": [{"size": "1"}, {"size": "1"}, {"size": "72"}, {"size": "24"}]}}}, "dtype": {"type": "DT_FLOAT"}}}, {"name": "StatefulPartitionedCall/model_4/expanded_conv_2/project/Conv2D_bn_offset", "op": "Const", "attr": {"value": {"tensor": {"dtype": "DT_FLOAT", "tensorShape": {"dim": [{"size": "24"}]}}}, "dtype": {"type": "DT_FLOAT"}}}, {"name": "StatefulPartitionedCall/model_4/expanded_conv_3/expand/Conv2D_weights", "op": "Const", "attr": {"value": {"tensor": {"dtype": "DT_FLOAT", "tensorShape": {"dim": [{"size": "1"}, {"size": "1"}, {"size": "24"}, {"size": "72"}]}}}, "dtype": {"type": "DT_FLOAT"}}}, {"name": "StatefulPartitionedCall/model_4/expanded_conv_3/expand/Conv2D_bn_offset", "op": "Const", "attr": {"value": {"tensor": {"dtype": "DT_FLOAT", "tensorShape": {"dim": [{"size": "72"}]}}}, "dtype": {"type": "DT_FLOAT"}}}, {"name": "StatefulPartitionedCall/model_4/conv2d_42/Conv2D_weights", "op": "Const", "attr": {"value": {"tensor": {"dtype": "DT_FLOAT", "tensorShape": {"dim": [{"size": "1"}, {"size": "1"}, {"size": "72"}, {"size": "64"}]}}}, "dtype": {"type": "DT_FLOAT"}}}, {"name": "StatefulPartitionedCall/model_4/expanded_conv_3/depthwise/depthwise_weights", "op": "Const", "attr": {"value": {"tensor": {"dtype": "DT_FLOAT", "tensorShape": {"dim": [{"size": "5"}, {"size": "5"}, {"size": "72"}, {"size": "1"}]}}}, "dtype": {"type": "DT_FLOAT"}}}, {"name": "StatefulPartitionedCall/model_4/expanded_conv_3/depthwise/depthwise_bn_offset", "op": "Const", "attr": {"value": {"tensor": {"dtype": "DT_FLOAT", "tensorShape": {"dim": [{"size": "72"}]}}}, "dtype": {"type": "DT_FLOAT"}}}, {"name": "StatefulPartitionedCall/model_4/conv2d_42/Conv2D_bn_offset", "op": "Const", "attr": {"value": {"tensor": {"dtype": "DT_FLOAT", "tensorShape": {"dim": [{"size": "64"}]}}}, "dtype": {"type": "DT_FLOAT"}}}, {"name": "StatefulPartitionedCall/model_4/expanded_conv_3/project/Conv2D_weights", "op": "Const", "attr": {"value": {"tensor": {"dtype": "DT_FLOAT", "tensorShape": {"dim": [{"size": "1"}, {"size": "1"}, {"size": "72"}, {"size": "40"}]}}}, "dtype": {"type": "DT_FLOAT"}}}, {"name": "StatefulPartitionedCall/model_4/conv2d_40/Conv2D_weights", "op": "Const", "attr": {"value": {"tensor": {"dtype": "DT_FLOAT", "tensorShape": {"dim": [{"size": "1"}, {"size": "1"}, {"size": "72"}, {"size": "64"}]}}}, "dtype": {"type": "DT_FLOAT"}}}, {"name": "StatefulPartitionedCall/model_4/expanded_conv_3/project/Conv2D_bn_offset", "op": "Const", "attr": {"value": {"tensor": {"dtype": "DT_FLOAT", "tensorShape": {"dim": [{"size": "40"}]}}}, "dtype": {"type": "DT_FLOAT"}}}, {"name": "StatefulPartitionedCall/model_4/expanded_conv_4/expand/Conv2D_weights", "op": "Const", "attr": {"value": {"tensor": {"dtype": "DT_FLOAT", "tensorShape": {"dim": [{"size": "1"}, {"size": "1"}, {"size": "40"}, {"size": "120"}]}}}, "dtype": {"type": "DT_FLOAT"}}}, {"name": "StatefulPartitionedCall/model_4/expanded_conv_4/expand/Conv2D_bn_offset", "op": "Const", "attr": {"value": {"tensor": {"dtype": "DT_FLOAT", "tensorShape": {"dim": [{"size": "120"}]}}}, "dtype": {"type": "DT_FLOAT"}}}, {"name": "StatefulPartitionedCall/model_4/conv2d_40/Conv2D_bn_offset", "op": "Const", "attr": {"value": {"tensor": {"dtype": "DT_FLOAT", "tensorShape": {"dim": [{"size": "64"}]}}}, "dtype": {"type": "DT_FLOAT"}}}, {"name": "StatefulPartitionedCall/model_4/expanded_conv_4/depthwise/depthwise_weights", "op": "Const", "attr": {"value": {"tensor": {"dtype": "DT_FLOAT", "tensorShape": {"dim": [{"size": "5"}, {"size": "5"}, {"size": "120"}, {"size": "1"}]}}}, "dtype": {"type": "DT_FLOAT"}}}, {"name": "StatefulPartitionedCall/model_4/expanded_conv_4/depthwise/depthwise_bn_offset", "op": "Const", "attr": {"value": {"tensor": {"dtype": "DT_FLOAT", "tensorShape": {"dim": [{"size": "120"}]}}}, "dtype": {"type": "DT_FLOAT"}}}, {"name": "StatefulPartitionedCall/model_4/depthwise_conv2d_29/depthwise_weights", "op": "Const", "attr": {"value": {"tensor": {"dtype": "DT_FLOAT", "tensorShape": {"dim": [{"size": "3"}, {"size": "3"}, {"size": "64"}, {"size": "1"}]}}}, "dtype": {"type": "DT_FLOAT"}}}, {"name": "StatefulPartitionedCall/model_4/expanded_conv_4/project/Conv2D_weights", "op": "Const", "attr": {"value": {"tensor": {"dtype": "DT_FLOAT", "tensorShape": {"dim": [{"size": "1"}, {"size": "1"}, {"size": "120"}, {"size": "40"}]}}}, "dtype": {"type": "DT_FLOAT"}}}, {"name": "StatefulPartitionedCall/model_4/expanded_conv_4/project/Conv2D_bn_offset", "op": "Const", "attr": {"value": {"tensor": {"dtype": "DT_FLOAT", "tensorShape": {"dim": [{"size": "40"}]}}}, "dtype": {"type": "DT_FLOAT"}}}, {"name": "StatefulPartitionedCall/model_4/expanded_conv_5/expand/Conv2D_weights", "op": "Const", "attr": {"value": {"tensor": {"dtype": "DT_FLOAT", "tensorShape": {"dim": [{"size": "1"}, {"size": "1"}, {"size": "40"}, {"size": "120"}]}}}, "dtype": {"type": "DT_FLOAT"}}}, {"name": "StatefulPartitionedCall/model_4/expanded_conv_5/expand/Conv2D_bn_offset", "op": "Const", "attr": {"value": {"tensor": {"dtype": "DT_FLOAT", "tensorShape": {"dim": [{"size": "120"}]}}}, "dtype": {"type": "DT_FLOAT"}}}, {"name": "StatefulPartitionedCall/model_4/expanded_conv_5/depthwise/depthwise_weights", "op": "Const", "attr": {"value": {"tensor": {"dtype": "DT_FLOAT", "tensorShape": {"dim": [{"size": "5"}, {"size": "5"}, {"size": "120"}, {"size": "1"}]}}}, "dtype": {"type": "DT_FLOAT"}}}, {"name": "StatefulPartitionedCall/model_4/expanded_conv_5/depthwise/depthwise_bn_offset", "op": "Const", "attr": {"value": {"tensor": {"dtype": "DT_FLOAT", "tensorShape": {"dim": [{"size": "120"}]}}}, "dtype": {"type": "DT_FLOAT"}}}, {"name": "StatefulPartitionedCall/model_4/conv2d_41/Conv2D_weights", "op": "Const", "attr": {"value": {"tensor": {"dtype": "DT_FLOAT", "tensorShape": {"dim": [{"size": "1"}, {"size": "1"}, {"size": "64"}, {"size": "64"}]}}}, "dtype": {"type": "DT_FLOAT"}}}, {"name": "StatefulPartitionedCall/model_4/expanded_conv_5/project/Conv2D_weights", "op": "Const", "attr": {"value": {"tensor": {"dtype": "DT_FLOAT", "tensorShape": {"dim": [{"size": "1"}, {"size": "1"}, {"size": "120"}, {"size": "40"}]}}}, "dtype": {"type": "DT_FLOAT"}}}, {"name": "StatefulPartitionedCall/model_4/conv2d_41/Conv2D_bn_offset", "op": "Const", "attr": {"value": {"tensor": {"dtype": "DT_FLOAT", "tensorShape": {"dim": [{"size": "64"}]}}}, "dtype": {"type": "DT_FLOAT"}}}, {"name": "StatefulPartitionedCall/model_4/expanded_conv_5/project/Conv2D_bn_offset", "op": "Const", "attr": {"value": {"tensor": {"dtype": "DT_FLOAT", "tensorShape": {"dim": [{"size": "40"}]}}}, "dtype": {"type": "DT_FLOAT"}}}, {"name": "StatefulPartitionedCall/model_4/expanded_conv_6/expand/Conv2D_weights", "op": "Const", "attr": {"value": {"tensor": {"dtype": "DT_FLOAT", "tensorShape": {"dim": [{"size": "1"}, {"size": "1"}, {"size": "40"}, {"size": "240"}]}}}, "dtype": {"type": "DT_FLOAT"}}}, {"name": "StatefulPartitionedCall/model_4/expanded_conv_6/expand/Conv2D_bn_offset", "op": "Const", "attr": {"value": {"tensor": {"dtype": "DT_FLOAT", "tensorShape": {"dim": [{"size": "240"}]}}}, "dtype": {"type": "DT_FLOAT"}}}, {"name": "StatefulPartitionedCall/model_4/expanded_conv_6/depthwise/depthwise_weights", "op": "Const", "attr": {"value": {"tensor": {"dtype": "DT_FLOAT", "tensorShape": {"dim": [{"size": "3"}, {"size": "3"}, {"size": "240"}, {"size": "1"}]}}}, "dtype": {"type": "DT_FLOAT"}}}, {"name": "StatefulPartitionedCall/model_4/expanded_conv_6/depthwise/depthwise_bn_offset", "op": "Const", "attr": {"value": {"tensor": {"dtype": "DT_FLOAT", "tensorShape": {"dim": [{"size": "240"}]}}}, "dtype": {"type": "DT_FLOAT"}}}, {"name": "StatefulPartitionedCall/model_4/expanded_conv_6/project/Conv2D_weights", "op": "Const", "attr": {"value": {"tensor": {"dtype": "DT_FLOAT", "tensorShape": {"dim": [{"size": "1"}, {"size": "1"}, {"size": "240"}, {"size": "80"}]}}}, "dtype": {"type": "DT_FLOAT"}}}, {"name": "StatefulPartitionedCall/model_4/expanded_conv_6/project/Conv2D_bn_offset", "op": "Const", "attr": {"value": {"tensor": {"dtype": "DT_FLOAT", "tensorShape": {"dim": [{"size": "80"}]}}}, "dtype": {"type": "DT_FLOAT"}}}, {"name": "StatefulPartitionedCall/model_4/expanded_conv_7/expand/Conv2D_weights", "op": "Const", "attr": {"value": {"tensor": {"dtype": "DT_FLOAT", "tensorShape": {"dim": [{"size": "1"}, {"size": "1"}, {"size": "80"}, {"size": "200"}]}}}, "dtype": {"type": "DT_FLOAT"}}}, {"name": "StatefulPartitionedCall/model_4/expanded_conv_7/expand/Conv2D_bn_offset", "op": "Const", "attr": {"value": {"tensor": {"dtype": "DT_FLOAT", "tensorShape": {"dim": [{"size": "200"}]}}}, "dtype": {"type": "DT_FLOAT"}}}, {"name": "StatefulPartitionedCall/model_4/expanded_conv_7/depthwise/depthwise_weights", "op": "Const", "attr": {"value": {"tensor": {"dtype": "DT_FLOAT", "tensorShape": {"dim": [{"size": "3"}, {"size": "3"}, {"size": "200"}, {"size": "1"}]}}}, "dtype": {"type": "DT_FLOAT"}}}, {"name": "StatefulPartitionedCall/model_4/expanded_conv_7/depthwise/depthwise_bn_offset", "op": "Const", "attr": {"value": {"tensor": {"dtype": "DT_FLOAT", "tensorShape": {"dim": [{"size": "200"}]}}}, "dtype": {"type": "DT_FLOAT"}}}, {"name": "StatefulPartitionedCall/model_4/expanded_conv_7/project/Conv2D_weights", "op": "Const", "attr": {"value": {"tensor": {"dtype": "DT_FLOAT", "tensorShape": {"dim": [{"size": "1"}, {"size": "1"}, {"size": "200"}, {"size": "80"}]}}}, "dtype": {"type": "DT_FLOAT"}}}, {"name": "StatefulPartitionedCall/model_4/expanded_conv_7/project/Conv2D_bn_offset", "op": "Const", "attr": {"value": {"tensor": {"dtype": "DT_FLOAT", "tensorShape": {"dim": [{"size": "80"}]}}}, "dtype": {"type": "DT_FLOAT"}}}, {"name": "StatefulPartitionedCall/model_4/expanded_conv_8/expand/Conv2D_weights", "op": "Const", "attr": {"value": {"tensor": {"dtype": "DT_FLOAT", "tensorShape": {"dim": [{"size": "1"}, {"size": "1"}, {"size": "80"}, {"size": "184"}]}}}, "dtype": {"type": "DT_FLOAT"}}}, {"name": "StatefulPartitionedCall/model_4/expanded_conv_8/expand/Conv2D_bn_offset", "op": "Const", "attr": {"value": {"tensor": {"dtype": "DT_FLOAT", "tensorShape": {"dim": [{"size": "184"}]}}}, "dtype": {"type": "DT_FLOAT"}}}, {"name": "StatefulPartitionedCall/model_4/expanded_conv_8/depthwise/depthwise_weights", "op": "Const", "attr": {"value": {"tensor": {"dtype": "DT_FLOAT", "tensorShape": {"dim": [{"size": "3"}, {"size": "3"}, {"size": "184"}, {"size": "1"}]}}}, "dtype": {"type": "DT_FLOAT"}}}, {"name": "StatefulPartitionedCall/model_4/expanded_conv_8/depthwise/depthwise_bn_offset", "op": "Const", "attr": {"value": {"tensor": {"dtype": "DT_FLOAT", "tensorShape": {"dim": [{"size": "184"}]}}}, "dtype": {"type": "DT_FLOAT"}}}, {"name": "StatefulPartitionedCall/model_4/expanded_conv_8/project/Conv2D_weights", "op": "Const", "attr": {"value": {"tensor": {"dtype": "DT_FLOAT", "tensorShape": {"dim": [{"size": "1"}, {"size": "1"}, {"size": "184"}, {"size": "80"}]}}}, "dtype": {"type": "DT_FLOAT"}}}, {"name": "StatefulPartitionedCall/model_4/depthwise_conv2d_30/depthwise_weights", "op": "Const", "attr": {"value": {"tensor": {"dtype": "DT_FLOAT", "tensorShape": {"dim": [{"size": "3"}, {"size": "3"}, {"size": "64"}, {"size": "1"}]}}}, "dtype": {"type": "DT_FLOAT"}}}, {"name": "StatefulPartitionedCall/model_4/expanded_conv_8/project/Conv2D_bn_offset", "op": "Const", "attr": {"value": {"tensor": {"dtype": "DT_FLOAT", "tensorShape": {"dim": [{"size": "80"}]}}}, "dtype": {"type": "DT_FLOAT"}}}, {"name": "StatefulPartitionedCall/model_4/expanded_conv_9/expand/Conv2D_weights", "op": "Const", "attr": {"value": {"tensor": {"dtype": "DT_FLOAT", "tensorShape": {"dim": [{"size": "1"}, {"size": "1"}, {"size": "80"}, {"size": "184"}]}}}, "dtype": {"type": "DT_FLOAT"}}}, {"name": "StatefulPartitionedCall/model_4/expanded_conv_9/expand/Conv2D_bn_offset", "op": "Const", "attr": {"value": {"tensor": {"dtype": "DT_FLOAT", "tensorShape": {"dim": [{"size": "184"}]}}}, "dtype": {"type": "DT_FLOAT"}}}, {"name": "StatefulPartitionedCall/model_4/expanded_conv_9/depthwise/depthwise_weights", "op": "Const", "attr": {"value": {"tensor": {"dtype": "DT_FLOAT", "tensorShape": {"dim": [{"size": "3"}, {"size": "3"}, {"size": "184"}, {"size": "1"}]}}}, "dtype": {"type": "DT_FLOAT"}}}, {"name": "StatefulPartitionedCall/model_4/expanded_conv_9/depthwise/depthwise_bn_offset", "op": "Const", "attr": {"value": {"tensor": {"dtype": "DT_FLOAT", "tensorShape": {"dim": [{"size": "184"}]}}}, "dtype": {"type": "DT_FLOAT"}}}, {"name": "StatefulPartitionedCall/model_4/expanded_conv_9/project/Conv2D_weights", "op": "Const", "attr": {"value": {"tensor": {"dtype": "DT_FLOAT", "tensorShape": {"dim": [{"size": "1"}, {"size": "1"}, {"size": "184"}, {"size": "80"}]}}}, "dtype": {"type": "DT_FLOAT"}}}, {"name": "StatefulPartitionedCall/model_4/expanded_conv_9/project/Conv2D_bn_offset", "op": "Const", "attr": {"value": {"tensor": {"dtype": "DT_FLOAT", "tensorShape": {"dim": [{"size": "80"}]}}}, "dtype": {"type": "DT_FLOAT"}}}, {"name": "StatefulPartitionedCall/model_4/expanded_conv_10/expand/Conv2D_weights", "op": "Const", "attr": {"value": {"tensor": {"dtype": "DT_FLOAT", "tensorShape": {"dim": [{"size": "1"}, {"size": "1"}, {"size": "80"}, {"size": "480"}]}}}, "dtype": {"type": "DT_FLOAT"}}}, {"name": "StatefulPartitionedCall/model_4/expanded_conv_10/expand/Conv2D_bn_offset", "op": "Const", "attr": {"value": {"tensor": {"dtype": "DT_FLOAT", "tensorShape": {"dim": [{"size": "480"}]}}}, "dtype": {"type": "DT_FLOAT"}}}, {"name": "StatefulPartitionedCall/model_4/expanded_conv_10/depthwise/depthwise_weights", "op": "Const", "attr": {"value": {"tensor": {"dtype": "DT_FLOAT", "tensorShape": {"dim": [{"size": "3"}, {"size": "3"}, {"size": "480"}, {"size": "1"}]}}}, "dtype": {"type": "DT_FLOAT"}}}, {"name": "StatefulPartitionedCall/model_4/expanded_conv_10/depthwise/depthwise_bn_offset", "op": "Const", "attr": {"value": {"tensor": {"dtype": "DT_FLOAT", "tensorShape": {"dim": [{"size": "480"}]}}}, "dtype": {"type": "DT_FLOAT"}}}, {"name": "StatefulPartitionedCall/model_4/conv2d_45/Conv2D_weights", "op": "Const", "attr": {"value": {"tensor": {"dtype": "DT_FLOAT", "tensorShape": {"dim": [{"size": "1"}, {"size": "1"}, {"size": "64"}, {"size": "16"}]}}}, "dtype": {"type": "DT_FLOAT"}}}, {"name": "StatefulPartitionedCall/model_4/expanded_conv_10/project/Conv2D_weights", "op": "Const", "attr": {"value": {"tensor": {"dtype": "DT_FLOAT", "tensorShape": {"dim": [{"size": "1"}, {"size": "1"}, {"size": "480"}, {"size": "112"}]}}}, "dtype": {"type": "DT_FLOAT"}}}, {"name": "StatefulPartitionedCall/model_4/conv2d_45/Conv2D_bn_offset", "op": "Const", "attr": {"value": {"tensor": {"dtype": "DT_FLOAT", "tensorShape": {"dim": [{"size": "16"}]}}}, "dtype": {"type": "DT_FLOAT"}}}, {"name": "StatefulPartitionedCall/model_4/expanded_conv_10/project/Conv2D_bn_offset", "op": "Const", "attr": {"value": {"tensor": {"dtype": "DT_FLOAT", "tensorShape": {"dim": [{"size": "112"}]}}}, "dtype": {"type": "DT_FLOAT"}}}, {"name": "StatefulPartitionedCall/model_4/expanded_conv_11/expand/Conv2D_weights", "op": "Const", "attr": {"value": {"tensor": {"dtype": "DT_FLOAT", "tensorShape": {"dim": [{"size": "1"}, {"size": "1"}, {"size": "112"}, {"size": "672"}]}}}, "dtype": {"type": "DT_FLOAT"}}}, {"name": "StatefulPartitionedCall/model_4/expanded_conv_11/expand/Conv2D_bn_offset", "op": "Const", "attr": {"value": {"tensor": {"dtype": "DT_FLOAT", "tensorShape": {"dim": [{"size": "672"}]}}}, "dtype": {"type": "DT_FLOAT"}}}, {"name": "StatefulPartitionedCall/model_4/expanded_conv_11/depthwise/depthwise_weights", "op": "Const", "attr": {"value": {"tensor": {"dtype": "DT_FLOAT", "tensorShape": {"dim": [{"size": "3"}, {"size": "3"}, {"size": "672"}, {"size": "1"}]}}}, "dtype": {"type": "DT_FLOAT"}}}, {"name": "StatefulPartitionedCall/model_4/expanded_conv_11/depthwise/depthwise_bn_offset", "op": "Const", "attr": {"value": {"tensor": {"dtype": "DT_FLOAT", "tensorShape": {"dim": [{"size": "672"}]}}}, "dtype": {"type": "DT_FLOAT"}}}, {"name": "StatefulPartitionedCall/model_4/conv2d_43/Conv2D_weights", "op": "Const", "attr": {"value": {"tensor": {"dtype": "DT_FLOAT", "tensorShape": {"dim": [{"size": "1"}, {"size": "1"}, {"size": "64"}, {"size": "16"}]}}}, "dtype": {"type": "DT_FLOAT"}}}, {"name": "StatefulPartitionedCall/model_4/conv2d_43/Conv2D_bn_offset", "op": "Const", "attr": {"value": {"tensor": {"dtype": "DT_FLOAT", "tensorShape": {"dim": [{"size": "16"}]}}}, "dtype": {"type": "DT_FLOAT"}}}, {"name": "StatefulPartitionedCall/model_4/expanded_conv_11/project/Conv2D_weights", "op": "Const", "attr": {"value": {"tensor": {"dtype": "DT_FLOAT", "tensorShape": {"dim": [{"size": "1"}, {"size": "1"}, {"size": "672"}, {"size": "112"}]}}}, "dtype": {"type": "DT_FLOAT"}}}, {"name": "StatefulPartitionedCall/model_4/expanded_conv_11/project/Conv2D_bn_offset", "op": "Const", "attr": {"value": {"tensor": {"dtype": "DT_FLOAT", "tensorShape": {"dim": [{"size": "112"}]}}}, "dtype": {"type": "DT_FLOAT"}}}, {"name": "StatefulPartitionedCall/model_4/expanded_conv_12/expand/Conv2D_weights", "op": "Const", "attr": {"value": {"tensor": {"dtype": "DT_FLOAT", "tensorShape": {"dim": [{"size": "1"}, {"size": "1"}, {"size": "112"}, {"size": "672"}]}}}, "dtype": {"type": "DT_FLOAT"}}}, {"name": "StatefulPartitionedCall/model_4/expanded_conv_12/expand/Conv2D_bn_offset", "op": "Const", "attr": {"value": {"tensor": {"dtype": "DT_FLOAT", "tensorShape": {"dim": [{"size": "672"}]}}}, "dtype": {"type": "DT_FLOAT"}}}, {"name": "StatefulPartitionedCall/model_4/depthwise_conv2d_24/depthwise_weights", "op": "Const", "attr": {"value": {"tensor": {"dtype": "DT_FLOAT", "tensorShape": {"dim": [{"size": "3"}, {"size": "3"}, {"size": "672"}, {"size": "1"}]}}}, "dtype": {"type": "DT_FLOAT"}}}, {"name": "StatefulPartitionedCall/model_4/conv2d_36/Conv2D_weights", "op": "Const", "attr": {"value": {"tensor": {"dtype": "DT_FLOAT", "tensorShape": {"dim": [{"size": "1"}, {"size": "1"}, {"size": "672"}, {"size": "72"}]}}}, "dtype": {"type": "DT_FLOAT"}}}, {"name": "StatefulPartitionedCall/model_4/depthwise_conv2d_31/depthwise_weights", "op": "Const", "attr": {"value": {"tensor": {"dtype": "DT_FLOAT", "tensorShape": {"dim": [{"size": "3"}, {"size": "3"}, {"size": "16"}, {"size": "1"}]}}}, "dtype": {"type": "DT_FLOAT"}}}, {"name": "StatefulPartitionedCall/model_4/conv2d_36/Conv2D_bn_offset", "op": "Const", "attr": {"value": {"tensor": {"dtype": "DT_FLOAT", "tensorShape": {"dim": [{"size": "72"}]}}}, "dtype": {"type": "DT_FLOAT"}}}, {"name": "StatefulPartitionedCall/model_4/conv2d_34/Conv2D_weights", "op": "Const", "attr": {"value": {"tensor": {"dtype": "DT_FLOAT", "tensorShape": {"dim": [{"size": "1"}, {"size": "1"}, {"size": "672"}, {"size": "72"}]}}}, "dtype": {"type": "DT_FLOAT"}}}, {"name": "StatefulPartitionedCall/model_4/conv2d_34/Conv2D_bn_offset", "op": "Const", "attr": {"value": {"tensor": {"dtype": "DT_FLOAT", "tensorShape": {"dim": [{"size": "72"}]}}}, "dtype": {"type": "DT_FLOAT"}}}, {"name": "StatefulPartitionedCall/model_4/depthwise_conv2d_25/depthwise_weights", "op": "Const", "attr": {"value": {"tensor": {"dtype": "DT_FLOAT", "tensorShape": {"dim": [{"size": "3"}, {"size": "3"}, {"size": "72"}, {"size": "1"}]}}}, "dtype": {"type": "DT_FLOAT"}}}, {"name": "StatefulPartitionedCall/model_4/conv2d_35/Conv2D_weights", "op": "Const", "attr": {"value": {"tensor": {"dtype": "DT_FLOAT", "tensorShape": {"dim": [{"size": "1"}, {"size": "1"}, {"size": "72"}, {"size": "72"}]}}}, "dtype": {"type": "DT_FLOAT"}}}, {"name": "StatefulPartitionedCall/model_4/conv2d_35/Conv2D_bn_offset", "op": "Const", "attr": {"value": {"tensor": {"dtype": "DT_FLOAT", "tensorShape": {"dim": [{"size": "72"}]}}}, "dtype": {"type": "DT_FLOAT"}}}, {"name": "StatefulPartitionedCall/model_4/depthwise_conv2d_26/depthwise_weights", "op": "Const", "attr": {"value": {"tensor": {"dtype": "DT_FLOAT", "tensorShape": {"dim": [{"size": "3"}, {"size": "3"}, {"size": "72"}, {"size": "1"}]}}}, "dtype": {"type": "DT_FLOAT"}}}, {"name": "StatefulPartitionedCall/model_4/conv2d_39/Conv2D_weights", "op": "Const", "attr": {"value": {"tensor": {"dtype": "DT_FLOAT", "tensorShape": {"dim": [{"size": "1"}, {"size": "1"}, {"size": "72"}, {"size": "72"}]}}}, "dtype": {"type": "DT_FLOAT"}}}, {"name": "StatefulPartitionedCall/model_4/conv2d_39/Conv2D_bn_offset", "op": "Const", "attr": {"value": {"tensor": {"dtype": "DT_FLOAT", "tensorShape": {"dim": [{"size": "72"}]}}}, "dtype": {"type": "DT_FLOAT"}}}, {"name": "StatefulPartitionedCall/model_4/conv2d_37/Conv2D_weights", "op": "Const", "attr": {"value": {"tensor": {"dtype": "DT_FLOAT", "tensorShape": {"dim": [{"size": "1"}, {"size": "1"}, {"size": "72"}, {"size": "72"}]}}}, "dtype": {"type": "DT_FLOAT"}}}, {"name": "StatefulPartitionedCall/model_4/conv2d_44/Conv2D_weights", "op": "Const", "attr": {"value": {"tensor": {"dtype": "DT_FLOAT", "tensorShape": {"dim": [{"size": "1"}, {"size": "1"}, {"size": "16"}, {"size": "16"}]}}}, "dtype": {"type": "DT_FLOAT"}}}, {"name": "StatefulPartitionedCall/model_4/conv2d_37/Conv2D_bn_offset", "op": "Const", "attr": {"value": {"tensor": {"dtype": "DT_FLOAT", "tensorShape": {"dim": [{"size": "72"}]}}}, "dtype": {"type": "DT_FLOAT"}}}, {"name": "StatefulPartitionedCall/model_4/depthwise_conv2d_27/depthwise_weights", "op": "Const", "attr": {"value": {"tensor": {"dtype": "DT_FLOAT", "tensorShape": {"dim": [{"size": "3"}, {"size": "3"}, {"size": "72"}, {"size": "1"}]}}}, "dtype": {"type": "DT_FLOAT"}}}, {"name": "StatefulPartitionedCall/model_4/conv2d_38/Conv2D_weights", "op": "Const", "attr": {"value": {"tensor": {"dtype": "DT_FLOAT", "tensorShape": {"dim": [{"size": "1"}, {"size": "1"}, {"size": "72"}, {"size": "72"}]}}}, "dtype": {"type": "DT_FLOAT"}}}, {"name": "StatefulPartitionedCall/model_4/conv2d_44/Conv2D_bn_offset", "op": "Const", "attr": {"value": {"tensor": {"dtype": "DT_FLOAT", "tensorShape": {"dim": [{"size": "16"}]}}}, "dtype": {"type": "DT_FLOAT"}}}, {"name": "StatefulPartitionedCall/model_4/conv2d_38/Conv2D_bn_offset", "op": "Const", "attr": {"value": {"tensor": {"dtype": "DT_FLOAT", "tensorShape": {"dim": [{"size": "72"}]}}}, "dtype": {"type": "DT_FLOAT"}}}, {"name": "StatefulPartitionedCall/model_4/Conv/BatchNorm/FusedBatchNormV3", "op": "_FusedConv2D", "input": ["input", "StatefulPartitionedCall/model_4/Conv/Conv2D_weights", "StatefulPartitionedCall/model_4/Conv/Conv2D_bn_offset"], "device": "/device:CPU:0", "attr": {"num_host_args": {"i": "0"}, "data_format": {"s": "TkhXQw=="}, "filter_format": {"s": "SFdJTw=="}, "fused_ops": {"list": {"s": ["Qmlhc0FkZA=="]}}, "num_args": {"i": "1"}, "strides": {"list": {"i": ["1", "2", "2", "1"]}}, "TArgs": {"list": {"type": ["DT_FLOAT"]}}, "padding": {"s": "U0FNRQ=="}, "use_cudnn_on_gpu": {"b": true}, "leakyrelu_alpha": {"f": 0.2}, "epsilon": {"f": 0.0}, "T": {"type": "DT_FLOAT"}, "explicit_paddings": {"list": {}}, "dilations": {"list": {"i": ["1", "1", "1", "1"]}}}}, {"name": "StatefulPartitionedCall/model_4/tf.math.multiply_84/Mul", "op": "Mul", "input": ["StatefulPartitionedCall/model_4/tf.math.multiply_84/Mul/y", "StatefulPartitionedCall/model_4/Conv/BatchNorm/FusedBatchNormV3"], "attr": {"_grappler_ArithmeticOptimizer_MinimizeBroadcasts": {"b": true}, "T": {"type": "DT_FLOAT"}}}, {"name": "StatefulPartitionedCall/model_4/tf.__operators__.add_84/AddV2", "op": "AddV2", "input": ["StatefulPartitionedCall/model_4/Conv/BatchNorm/FusedBatchNormV3", "StatefulPartitionedCall/model_4/tf.__operators__.add_84/y"], "attr": {"T": {"type": "DT_FLOAT"}}}, {"name": "StatefulPartitionedCall/model_4/re_lu_133/Relu6", "op": "Relu6", "input": ["StatefulPartitionedCall/model_4/tf.__operators__.add_84/AddV2"], "attr": {"T": {"type": "DT_FLOAT"}}}, {"name": "StatefulPartitionedCall/model_4/multiply_60/mul", "op": "Mul", "input": ["StatefulPartitionedCall/model_4/tf.math.multiply_84/Mul", "StatefulPartitionedCall/model_4/re_lu_133/Relu6"], "attr": {"_grappler_ArithmeticOptimizer_MinimizeBroadcasts": {"b": true}, "T": {"type": "DT_FLOAT"}}}, {"name": "StatefulPartitionedCall/model_4/expanded_conv/depthwise/depthwise", "op": "FusedDepthwiseConv2dNative", "input": ["StatefulPartitionedCall/model_4/multiply_60/mul", "StatefulPartitionedCall/model_4/expanded_conv/depthwise/depthwise_weights", "StatefulPartitionedCall/model_4/expanded_conv/depthwise/depthwise_bn_offset"], "attr": {"padding": {"s": "U0FNRQ=="}, "data_format": {"s": "TkhXQw=="}, "strides": {"list": {"i": ["1", "1", "1", "1"]}}, "num_args": {"i": "1"}, "fused_ops": {"list": {"s": ["Qmlhc0FkZA==", "UmVsdQ=="]}}, "T": {"type": "DT_FLOAT"}, "explicit_paddings": {"list": {}}, "dilations": {"list": {"i": ["1", "1", "1", "1"]}}}}, {"name": "StatefulPartitionedCall/model_4/expanded_conv/project/BatchNorm/FusedBatchNormV3", "op": "_FusedConv2D", "input": ["StatefulPartitionedCall/model_4/expanded_conv/depthwise/depthwise", "StatefulPartitionedCall/model_4/expanded_conv/project/Conv2D_weights", "StatefulPartitionedCall/model_4/expanded_conv/project/Conv2D_bn_offset"], "device": "/device:CPU:0", "attr": {"num_host_args": {"i": "0"}, "data_format": {"s": "TkhXQw=="}, "filter_format": {"s": "SFdJTw=="}, "fused_ops": {"list": {"s": ["Qmlhc0FkZA=="]}}, "num_args": {"i": "1"}, "strides": {"list": {"i": ["1", "1", "1", "1"]}}, "TArgs": {"list": {"type": ["DT_FLOAT"]}}, "padding": {"s": "U0FNRQ=="}, "use_cudnn_on_gpu": {"b": true}, "leakyrelu_alpha": {"f": 0.2}, "epsilon": {"f": 0.0}, "T": {"type": "DT_FLOAT"}, "explicit_paddings": {"list": {}}, "dilations": {"list": {"i": ["1", "1", "1", "1"]}}}}, {"name": "StatefulPartitionedCall/model_4/expanded_conv/Add/add", "op": "AddV2", "input": ["StatefulPartitionedCall/model_4/multiply_60/mul", "StatefulPartitionedCall/model_4/expanded_conv/project/BatchNorm/FusedBatchNormV3"], "attr": {"T": {"type": "DT_FLOAT"}}}, {"name": "StatefulPartitionedCall/model_4/re_lu_135/Relu", "op": "_FusedConv2D", "input": ["StatefulPartitionedCall/model_4/expanded_conv/Add/add", "StatefulPartitionedCall/model_4/expanded_conv_1/expand/Conv2D_weights", "StatefulPartitionedCall/model_4/expanded_conv_1/expand/Conv2D_bn_offset"], "device": "/device:CPU:0", "attr": {"num_host_args": {"i": "0"}, "data_format": {"s": "TkhXQw=="}, "filter_format": {"s": "SFdJTw=="}, "strides": {"list": {"i": ["1", "1", "1", "1"]}}, "num_args": {"i": "1"}, "fused_ops": {"list": {"s": ["Qmlhc0FkZA==", "UmVsdQ=="]}}, "TArgs": {"list": {"type": ["DT_FLOAT"]}}, "padding": {"s": "U0FNRQ=="}, "use_cudnn_on_gpu": {"b": true}, "leakyrelu_alpha": {"f": 0.2}, "epsilon": {"f": 0.0}, "T": {"type": "DT_FLOAT"}, "explicit_paddings": {"list": {}}, "dilations": {"list": {"i": ["1", "1", "1", "1"]}}}}, {"name": "StatefulPartitionedCall/model_4/expanded_conv_1/depthwise/pad/Pad", "op": "Pad", "input": ["StatefulPartitionedCall/model_4/re_lu_135/Relu", "StatefulPartitionedCall/model_4/expanded_conv_1/depthwise/pad/Pad/paddings"], "attr": {"Tpaddings": {"type": "DT_INT32"}, "T": {"type": "DT_FLOAT"}}}, {"name": "StatefulPartitionedCall/model_4/expanded_conv_1/depthwise/depthwise", "op": "FusedDepthwiseConv2dNative", "input": ["StatefulPartitionedCall/model_4/expanded_conv_1/depthwise/pad/Pad", "StatefulPartitionedCall/model_4/expanded_conv_1/depthwise/depthwise_weights", "StatefulPartitionedCall/model_4/expanded_conv_1/depthwise/depthwise_bn_offset"], "attr": {"padding": {"s": "VkFMSUQ="}, "data_format": {"s": "TkhXQw=="}, "strides": {"list": {"i": ["1", "2", "2", "1"]}}, "num_args": {"i": "1"}, "fused_ops": {"list": {"s": ["Qmlhc0FkZA==", "UmVsdQ=="]}}, "T": {"type": "DT_FLOAT"}, "explicit_paddings": {"list": {}}, "dilations": {"list": {"i": ["1", "1", "1", "1"]}}}}, {"name": "StatefulPartitionedCall/model_4/expanded_conv_1/project/BatchNorm/FusedBatchNormV3", "op": "_FusedConv2D", "input": ["StatefulPartitionedCall/model_4/expanded_conv_1/depthwise/depthwise", "StatefulPartitionedCall/model_4/expanded_conv_1/project/Conv2D_weights", "StatefulPartitionedCall/model_4/expanded_conv_1/project/Conv2D_bn_offset"], "device": "/device:CPU:0", "attr": {"num_host_args": {"i": "0"}, "data_format": {"s": "TkhXQw=="}, "filter_format": {"s": "SFdJTw=="}, "strides": {"list": {"i": ["1", "1", "1", "1"]}}, "num_args": {"i": "1"}, "fused_ops": {"list": {"s": ["Qmlhc0FkZA=="]}}, "TArgs": {"list": {"type": ["DT_FLOAT"]}}, "padding": {"s": "U0FNRQ=="}, "use_cudnn_on_gpu": {"b": true}, "leakyrelu_alpha": {"f": 0.2}, "epsilon": {"f": 0.0}, "T": {"type": "DT_FLOAT"}, "explicit_paddings": {"list": {}}, "dilations": {"list": {"i": ["1", "1", "1", "1"]}}}}, {"name": "StatefulPartitionedCall/model_4/re_lu_137/Relu", "op": "_FusedConv2D", "input": ["StatefulPartitionedCall/model_4/expanded_conv_1/project/BatchNorm/FusedBatchNormV3", "StatefulPartitionedCall/model_4/expanded_conv_2/expand/Conv2D_weights", "StatefulPartitionedCall/model_4/expanded_conv_2/expand/Conv2D_bn_offset"], "device": "/device:CPU:0", "attr": {"num_host_args": {"i": "0"}, "data_format": {"s": "TkhXQw=="}, "filter_format": {"s": "SFdJTw=="}, "fused_ops": {"list": {"s": ["Qmlhc0FkZA==", "UmVsdQ=="]}}, "num_args": {"i": "1"}, "strides": {"list": {"i": ["1", "1", "1", "1"]}}, "TArgs": {"list": {"type": ["DT_FLOAT"]}}, "padding": {"s": "U0FNRQ=="}, "use_cudnn_on_gpu": {"b": true}, "leakyrelu_alpha": {"f": 0.2}, "epsilon": {"f": 0.0}, "T": {"type": "DT_FLOAT"}, "explicit_paddings": {"list": {}}, "dilations": {"list": {"i": ["1", "1", "1", "1"]}}}}, {"name": "StatefulPartitionedCall/model_4/expanded_conv_2/depthwise/depthwise", "op": "FusedDepthwiseConv2dNative", "input": ["StatefulPartitionedCall/model_4/re_lu_137/Relu", "StatefulPartitionedCall/model_4/expanded_conv_2/depthwise/depthwise_weights", "StatefulPartitionedCall/model_4/expanded_conv_2/depthwise/depthwise_bn_offset"], "attr": {"padding": {"s": "U0FNRQ=="}, "data_format": {"s": "TkhXQw=="}, "strides": {"list": {"i": ["1", "1", "1", "1"]}}, "num_args": {"i": "1"}, "fused_ops": {"list": {"s": ["Qmlhc0FkZA==", "UmVsdQ=="]}}, "T": {"type": "DT_FLOAT"}, "explicit_paddings": {"list": {}}, "dilations": {"list": {"i": ["1", "1", "1", "1"]}}}}, {"name": "StatefulPartitionedCall/model_4/expanded_conv_2/project/BatchNorm/FusedBatchNormV3", "op": "_FusedConv2D", "input": ["StatefulPartitionedCall/model_4/expanded_conv_2/depthwise/depthwise", "StatefulPartitionedCall/model_4/expanded_conv_2/project/Conv2D_weights", "StatefulPartitionedCall/model_4/expanded_conv_2/project/Conv2D_bn_offset"], "device": "/device:CPU:0", "attr": {"num_host_args": {"i": "0"}, "data_format": {"s": "TkhXQw=="}, "filter_format": {"s": "SFdJTw=="}, "fused_ops": {"list": {"s": ["Qmlhc0FkZA=="]}}, "num_args": {"i": "1"}, "strides": {"list": {"i": ["1", "1", "1", "1"]}}, "TArgs": {"list": {"type": ["DT_FLOAT"]}}, "padding": {"s": "U0FNRQ=="}, "use_cudnn_on_gpu": {"b": true}, "leakyrelu_alpha": {"f": 0.2}, "epsilon": {"f": 0.0}, "T": {"type": "DT_FLOAT"}, "explicit_paddings": {"list": {}}, "dilations": {"list": {"i": ["1", "1", "1", "1"]}}}}, {"name": "StatefulPartitionedCall/model_4/expanded_conv_2/Add/add", "op": "AddV2", "input": ["StatefulPartitionedCall/model_4/expanded_conv_1/project/BatchNorm/FusedBatchNormV3", "StatefulPartitionedCall/model_4/expanded_conv_2/project/BatchNorm/FusedBatchNormV3"], "attr": {"T": {"type": "DT_FLOAT"}}}, {"name": "StatefulPartitionedCall/model_4/re_lu_139/Relu", "op": "_FusedConv2D", "input": ["StatefulPartitionedCall/model_4/expanded_conv_2/Add/add", "StatefulPartitionedCall/model_4/expanded_conv_3/expand/Conv2D_weights", "StatefulPartitionedCall/model_4/expanded_conv_3/expand/Conv2D_bn_offset"], "device": "/device:CPU:0", "attr": {"num_host_args": {"i": "0"}, "data_format": {"s": "TkhXQw=="}, "filter_format": {"s": "SFdJTw=="}, "strides": {"list": {"i": ["1", "1", "1", "1"]}}, "num_args": {"i": "1"}, "fused_ops": {"list": {"s": ["Qmlhc0FkZA==", "UmVsdQ=="]}}, "TArgs": {"list": {"type": ["DT_FLOAT"]}}, "padding": {"s": "U0FNRQ=="}, "use_cudnn_on_gpu": {"b": true}, "leakyrelu_alpha": {"f": 0.2}, "epsilon": {"f": 0.0}, "T": {"type": "DT_FLOAT"}, "explicit_paddings": {"list": {}}, "dilations": {"list": {"i": ["1", "1", "1", "1"]}}}}, {"name": "StatefulPartitionedCall/model_4/expanded_conv_3/depthwise/pad/Pad", "op": "Pad", "input": ["StatefulPartitionedCall/model_4/re_lu_139/Relu", "StatefulPartitionedCall/model_4/expanded_conv_3/depthwise/pad/Pad/paddings"], "attr": {"Tpaddings": {"type": "DT_INT32"}, "T": {"type": "DT_FLOAT"}}}, {"name": "StatefulPartitionedCall/model_4/expanded_conv_3/depthwise/depthwise", "op": "FusedDepthwiseConv2dNative", "input": ["StatefulPartitionedCall/model_4/expanded_conv_3/depthwise/pad/Pad", "StatefulPartitionedCall/model_4/expanded_conv_3/depthwise/depthwise_weights", "StatefulPartitionedCall/model_4/expanded_conv_3/depthwise/depthwise_bn_offset"], "attr": {"padding": {"s": "VkFMSUQ="}, "data_format": {"s": "TkhXQw=="}, "strides": {"list": {"i": ["1", "2", "2", "1"]}}, "num_args": {"i": "1"}, "fused_ops": {"list": {"s": ["Qmlhc0FkZA==", "UmVsdQ=="]}}, "T": {"type": "DT_FLOAT"}, "explicit_paddings": {"list": {}}, "dilations": {"list": {"i": ["1", "1", "1", "1"]}}}}, {"name": "StatefulPartitionedCall/model_4/expanded_conv_3/squeeze_excite/AvgPool/Mean", "op": "Mean", "input": ["StatefulPartitionedCall/model_4/expanded_conv_3/depthwise/depthwise", "StatefulPartitionedCall/model_4/expanded_conv_3/squeeze_excite/AvgPool/Mean/reduction_indices"], "attr": {"T": {"type": "DT_FLOAT"}, "Tidx": {"type": "DT_INT32"}, "keep_dims": {"b": true}}}, {"name": "StatefulPartitionedCall/model_4/expanded_conv_3/squeeze_excite/Relu/Relu", "op": "_FusedConv2D", "input": ["StatefulPartitionedCall/model_4/expanded_conv_3/squeeze_excite/AvgPool/Mean", "StatefulPartitionedCall/model_4/expanded_conv_3/squeeze_excite/Conv/Conv2D/ReadVariableOp", "StatefulPartitionedCall/model_4/expanded_conv_3/squeeze_excite/Conv/BiasAdd/ReadVariableOp"], "device": "/device:CPU:0", "attr": {"num_host_args": {"i": "0"}, "data_format": {"s": "TkhXQw=="}, "filter_format": {"s": "SFdJTw=="}, "fused_ops": {"list": {"s": ["Qmlhc0FkZA==", "UmVsdQ=="]}}, "num_args": {"i": "1"}, "strides": {"list": {"i": ["1", "1", "1", "1"]}}, "TArgs": {"list": {"type": ["DT_FLOAT"]}}, "padding": {"s": "U0FNRQ=="}, "use_cudnn_on_gpu": {"b": true}, "leakyrelu_alpha": {"f": 0.2}, "epsilon": {"f": 0.0}, "T": {"type": "DT_FLOAT"}, "explicit_paddings": {"list": {}}, "dilations": {"list": {"i": ["1", "1", "1", "1"]}}}}, {"name": "StatefulPartitionedCall/model_4/expanded_conv_3/squeeze_excite/Conv_1/BiasAdd", "op": "_FusedConv2D", "input": ["StatefulPartitionedCall/model_4/expanded_conv_3/squeeze_excite/Relu/Relu", "StatefulPartitionedCall/model_4/expanded_conv_3/squeeze_excite/Conv_1/Conv2D/ReadVariableOp", "StatefulPartitionedCall/model_4/expanded_conv_3/squeeze_excite/Conv_1/BiasAdd/ReadVariableOp"], "device": "/device:CPU:0", "attr": {"num_host_args": {"i": "0"}, "data_format": {"s": "TkhXQw=="}, "filter_format": {"s": "SFdJTw=="}, "fused_ops": {"list": {"s": ["Qmlhc0FkZA=="]}}, "num_args": {"i": "1"}, "strides": {"list": {"i": ["1", "1", "1", "1"]}}, "TArgs": {"list": {"type": ["DT_FLOAT"]}}, "padding": {"s": "U0FNRQ=="}, "use_cudnn_on_gpu": {"b": true}, "leakyrelu_alpha": {"f": 0.2}, "epsilon": {"f": 0.0}, "T": {"type": "DT_FLOAT"}, "explicit_paddings": {"list": {}}, "dilations": {"list": {"i": ["1", "1", "1", "1"]}}}}, {"name": "StatefulPartitionedCall/model_4/tf.__operators__.add_85/AddV2", "op": "AddV2", "input": ["StatefulPartitionedCall/model_4/expanded_conv_3/squeeze_excite/Conv_1/BiasAdd", "StatefulPartitionedCall/model_4/tf.__operators__.add_85/y"], "attr": {"T": {"type": "DT_FLOAT"}}}, {"name": "StatefulPartitionedCall/model_4/re_lu_141/Relu6", "op": "Relu6", "input": ["StatefulPartitionedCall/model_4/tf.__operators__.add_85/AddV2"], "attr": {"T": {"type": "DT_FLOAT"}}}, {"name": "StatefulPartitionedCall/model_4/tf.math.multiply_85/Mul", "op": "Mul", "input": ["StatefulPartitionedCall/model_4/tf.math.multiply_85/Mul/y", "StatefulPartitionedCall/model_4/re_lu_141/Relu6"], "attr": {"_grappler_ArithmeticOptimizer_MinimizeBroadcasts": {"b": true}, "T": {"type": "DT_FLOAT"}}}, {"name": "StatefulPartitionedCall/model_4/expanded_conv_3/squeeze_excite/Mul/mul", "op": "Mul", "input": ["StatefulPartitionedCall/model_4/tf.math.multiply_85/Mul", "StatefulPartitionedCall/model_4/expanded_conv_3/depthwise/depthwise"], "attr": {"_grappler_ArithmeticOptimizer_MinimizeBroadcasts": {"b": true}, "T": {"type": "DT_FLOAT"}}}, {"name": "StatefulPartitionedCall/model_4/expanded_conv_3/project/BatchNorm/FusedBatchNormV3", "op": "_FusedConv2D", "input": ["StatefulPartitionedCall/model_4/expanded_conv_3/squeeze_excite/Mul/mul", "StatefulPartitionedCall/model_4/expanded_conv_3/project/Conv2D_weights", "StatefulPartitionedCall/model_4/expanded_conv_3/project/Conv2D_bn_offset"], "device": "/device:CPU:0", "attr": {"num_host_args": {"i": "0"}, "data_format": {"s": "TkhXQw=="}, "filter_format": {"s": "SFdJTw=="}, "fused_ops": {"list": {"s": ["Qmlhc0FkZA=="]}}, "num_args": {"i": "1"}, "strides": {"list": {"i": ["1", "1", "1", "1"]}}, "TArgs": {"list": {"type": ["DT_FLOAT"]}}, "padding": {"s": "U0FNRQ=="}, "use_cudnn_on_gpu": {"b": true}, "leakyrelu_alpha": {"f": 0.2}, "epsilon": {"f": 0.0}, "T": {"type": "DT_FLOAT"}, "explicit_paddings": {"list": {}}, "dilations": {"list": {"i": ["1", "1", "1", "1"]}}}}, {"name": "StatefulPartitionedCall/model_4/re_lu_142/Relu", "op": "_FusedConv2D", "input": ["StatefulPartitionedCall/model_4/expanded_conv_3/project/BatchNorm/FusedBatchNormV3", "StatefulPartitionedCall/model_4/expanded_conv_4/expand/Conv2D_weights", "StatefulPartitionedCall/model_4/expanded_conv_4/expand/Conv2D_bn_offset"], "device": "/device:CPU:0", "attr": {"num_host_args": {"i": "0"}, "data_format": {"s": "TkhXQw=="}, "filter_format": {"s": "SFdJTw=="}, "strides": {"list": {"i": ["1", "1", "1", "1"]}}, "num_args": {"i": "1"}, "fused_ops": {"list": {"s": ["Qmlhc0FkZA==", "UmVsdQ=="]}}, "TArgs": {"list": {"type": ["DT_FLOAT"]}}, "padding": {"s": "U0FNRQ=="}, "use_cudnn_on_gpu": {"b": true}, "leakyrelu_alpha": {"f": 0.2}, "epsilon": {"f": 0.0}, "T": {"type": "DT_FLOAT"}, "explicit_paddings": {"list": {}}, "dilations": {"list": {"i": ["1", "1", "1", "1"]}}}}, {"name": "StatefulPartitionedCall/model_4/expanded_conv_4/depthwise/depthwise", "op": "FusedDepthwiseConv2dNative", "input": ["StatefulPartitionedCall/model_4/re_lu_142/Relu", "StatefulPartitionedCall/model_4/expanded_conv_4/depthwise/depthwise_weights", "StatefulPartitionedCall/model_4/expanded_conv_4/depthwise/depthwise_bn_offset"], "attr": {"padding": {"s": "U0FNRQ=="}, "data_format": {"s": "TkhXQw=="}, "strides": {"list": {"i": ["1", "1", "1", "1"]}}, "num_args": {"i": "1"}, "fused_ops": {"list": {"s": ["Qmlhc0FkZA==", "UmVsdQ=="]}}, "T": {"type": "DT_FLOAT"}, "explicit_paddings": {"list": {}}, "dilations": {"list": {"i": ["1", "1", "1", "1"]}}}}, {"name": "StatefulPartitionedCall/model_4/expanded_conv_4/squeeze_excite/AvgPool/Mean", "op": "Mean", "input": ["StatefulPartitionedCall/model_4/expanded_conv_4/depthwise/depthwise", "StatefulPartitionedCall/model_4/expanded_conv_4/squeeze_excite/AvgPool/Mean/reduction_indices"], "attr": {"Tidx": {"type": "DT_INT32"}, "T": {"type": "DT_FLOAT"}, "keep_dims": {"b": true}}}, {"name": "StatefulPartitionedCall/model_4/expanded_conv_4/squeeze_excite/Relu/Relu", "op": "_FusedConv2D", "input": ["StatefulPartitionedCall/model_4/expanded_conv_4/squeeze_excite/AvgPool/Mean", "StatefulPartitionedCall/model_4/expanded_conv_4/squeeze_excite/Conv/Conv2D/ReadVariableOp", "StatefulPartitionedCall/model_4/expanded_conv_4/squeeze_excite/Conv/BiasAdd/ReadVariableOp"], "device": "/device:CPU:0", "attr": {"num_host_args": {"i": "0"}, "data_format": {"s": "TkhXQw=="}, "filter_format": {"s": "SFdJTw=="}, "fused_ops": {"list": {"s": ["Qmlhc0FkZA==", "UmVsdQ=="]}}, "num_args": {"i": "1"}, "strides": {"list": {"i": ["1", "1", "1", "1"]}}, "TArgs": {"list": {"type": ["DT_FLOAT"]}}, "padding": {"s": "U0FNRQ=="}, "use_cudnn_on_gpu": {"b": true}, "leakyrelu_alpha": {"f": 0.2}, "epsilon": {"f": 0.0}, "T": {"type": "DT_FLOAT"}, "explicit_paddings": {"list": {}}, "dilations": {"list": {"i": ["1", "1", "1", "1"]}}}}, {"name": "StatefulPartitionedCall/model_4/expanded_conv_4/squeeze_excite/Conv_1/BiasAdd", "op": "_FusedConv2D", "input": ["StatefulPartitionedCall/model_4/expanded_conv_4/squeeze_excite/Relu/Relu", "StatefulPartitionedCall/model_4/expanded_conv_4/squeeze_excite/Conv_1/Conv2D/ReadVariableOp", "StatefulPartitionedCall/model_4/expanded_conv_4/squeeze_excite/Conv_1/BiasAdd/ReadVariableOp"], "device": "/device:CPU:0", "attr": {"num_host_args": {"i": "0"}, "data_format": {"s": "TkhXQw=="}, "filter_format": {"s": "SFdJTw=="}, "strides": {"list": {"i": ["1", "1", "1", "1"]}}, "num_args": {"i": "1"}, "fused_ops": {"list": {"s": ["Qmlhc0FkZA=="]}}, "TArgs": {"list": {"type": ["DT_FLOAT"]}}, "padding": {"s": "U0FNRQ=="}, "use_cudnn_on_gpu": {"b": true}, "leakyrelu_alpha": {"f": 0.2}, "epsilon": {"f": 0.0}, "T": {"type": "DT_FLOAT"}, "explicit_paddings": {"list": {}}, "dilations": {"list": {"i": ["1", "1", "1", "1"]}}}}, {"name": "StatefulPartitionedCall/model_4/tf.__operators__.add_86/AddV2", "op": "AddV2", "input": ["StatefulPartitionedCall/model_4/expanded_conv_4/squeeze_excite/Conv_1/BiasAdd", "StatefulPartitionedCall/model_4/tf.__operators__.add_86/y"], "attr": {"T": {"type": "DT_FLOAT"}}}, {"name": "StatefulPartitionedCall/model_4/re_lu_144/Relu6", "op": "Relu6", "input": ["StatefulPartitionedCall/model_4/tf.__operators__.add_86/AddV2"], "attr": {"T": {"type": "DT_FLOAT"}}}, {"name": "StatefulPartitionedCall/model_4/tf.math.multiply_86/Mul", "op": "Mul", "input": ["StatefulPartitionedCall/model_4/tf.math.multiply_86/Mul/y", "StatefulPartitionedCall/model_4/re_lu_144/Relu6"], "attr": {"_grappler_ArithmeticOptimizer_MinimizeBroadcasts": {"b": true}, "T": {"type": "DT_FLOAT"}}}, {"name": "StatefulPartitionedCall/model_4/expanded_conv_4/squeeze_excite/Mul/mul", "op": "Mul", "input": ["StatefulPartitionedCall/model_4/tf.math.multiply_86/Mul", "StatefulPartitionedCall/model_4/expanded_conv_4/depthwise/depthwise"], "attr": {"_grappler_ArithmeticOptimizer_MinimizeBroadcasts": {"b": true}, "T": {"type": "DT_FLOAT"}}}, {"name": "StatefulPartitionedCall/model_4/expanded_conv_4/project/BatchNorm/FusedBatchNormV3", "op": "_FusedConv2D", "input": ["StatefulPartitionedCall/model_4/expanded_conv_4/squeeze_excite/Mul/mul", "StatefulPartitionedCall/model_4/expanded_conv_4/project/Conv2D_weights", "StatefulPartitionedCall/model_4/expanded_conv_4/project/Conv2D_bn_offset"], "device": "/device:CPU:0", "attr": {"num_host_args": {"i": "0"}, "data_format": {"s": "TkhXQw=="}, "filter_format": {"s": "SFdJTw=="}, "fused_ops": {"list": {"s": ["Qmlhc0FkZA=="]}}, "num_args": {"i": "1"}, "strides": {"list": {"i": ["1", "1", "1", "1"]}}, "TArgs": {"list": {"type": ["DT_FLOAT"]}}, "padding": {"s": "U0FNRQ=="}, "use_cudnn_on_gpu": {"b": true}, "leakyrelu_alpha": {"f": 0.2}, "epsilon": {"f": 0.0}, "T": {"type": "DT_FLOAT"}, "explicit_paddings": {"list": {}}, "dilations": {"list": {"i": ["1", "1", "1", "1"]}}}}, {"name": "StatefulPartitionedCall/model_4/expanded_conv_4/Add/add", "op": "AddV2", "input": ["StatefulPartitionedCall/model_4/expanded_conv_3/project/BatchNorm/FusedBatchNormV3", "StatefulPartitionedCall/model_4/expanded_conv_4/project/BatchNorm/FusedBatchNormV3"], "attr": {"T": {"type": "DT_FLOAT"}}}, {"name": "StatefulPartitionedCall/model_4/re_lu_145/Relu", "op": "_FusedConv2D", "input": ["StatefulPartitionedCall/model_4/expanded_conv_4/Add/add", "StatefulPartitionedCall/model_4/expanded_conv_5/expand/Conv2D_weights", "StatefulPartitionedCall/model_4/expanded_conv_5/expand/Conv2D_bn_offset"], "device": "/device:CPU:0", "attr": {"num_host_args": {"i": "0"}, "data_format": {"s": "TkhXQw=="}, "filter_format": {"s": "SFdJTw=="}, "fused_ops": {"list": {"s": ["Qmlhc0FkZA==", "UmVsdQ=="]}}, "num_args": {"i": "1"}, "strides": {"list": {"i": ["1", "1", "1", "1"]}}, "TArgs": {"list": {"type": ["DT_FLOAT"]}}, "padding": {"s": "U0FNRQ=="}, "use_cudnn_on_gpu": {"b": true}, "leakyrelu_alpha": {"f": 0.2}, "epsilon": {"f": 0.0}, "T": {"type": "DT_FLOAT"}, "explicit_paddings": {"list": {}}, "dilations": {"list": {"i": ["1", "1", "1", "1"]}}}}, {"name": "StatefulPartitionedCall/model_4/expanded_conv_5/depthwise/depthwise", "op": "FusedDepthwiseConv2dNative", "input": ["StatefulPartitionedCall/model_4/re_lu_145/Relu", "StatefulPartitionedCall/model_4/expanded_conv_5/depthwise/depthwise_weights", "StatefulPartitionedCall/model_4/expanded_conv_5/depthwise/depthwise_bn_offset"], "attr": {"padding": {"s": "U0FNRQ=="}, "data_format": {"s": "TkhXQw=="}, "strides": {"list": {"i": ["1", "1", "1", "1"]}}, "num_args": {"i": "1"}, "fused_ops": {"list": {"s": ["Qmlhc0FkZA==", "UmVsdQ=="]}}, "T": {"type": "DT_FLOAT"}, "explicit_paddings": {"list": {}}, "dilations": {"list": {"i": ["1", "1", "1", "1"]}}}}, {"name": "StatefulPartitionedCall/model_4/expanded_conv_5/squeeze_excite/AvgPool/Mean", "op": "Mean", "input": ["StatefulPartitionedCall/model_4/expanded_conv_5/depthwise/depthwise", "StatefulPartitionedCall/model_4/expanded_conv_5/squeeze_excite/AvgPool/Mean/reduction_indices"], "attr": {"T": {"type": "DT_FLOAT"}, "Tidx": {"type": "DT_INT32"}, "keep_dims": {"b": true}}}, {"name": "StatefulPartitionedCall/model_4/expanded_conv_5/squeeze_excite/Relu/Relu", "op": "_FusedConv2D", "input": ["StatefulPartitionedCall/model_4/expanded_conv_5/squeeze_excite/AvgPool/Mean", "StatefulPartitionedCall/model_4/expanded_conv_5/squeeze_excite/Conv/Conv2D/ReadVariableOp", "StatefulPartitionedCall/model_4/expanded_conv_5/squeeze_excite/Conv/BiasAdd/ReadVariableOp"], "device": "/device:CPU:0", "attr": {"num_host_args": {"i": "0"}, "data_format": {"s": "TkhXQw=="}, "filter_format": {"s": "SFdJTw=="}, "fused_ops": {"list": {"s": ["Qmlhc0FkZA==", "UmVsdQ=="]}}, "num_args": {"i": "1"}, "strides": {"list": {"i": ["1", "1", "1", "1"]}}, "TArgs": {"list": {"type": ["DT_FLOAT"]}}, "padding": {"s": "U0FNRQ=="}, "use_cudnn_on_gpu": {"b": true}, "leakyrelu_alpha": {"f": 0.2}, "epsilon": {"f": 0.0}, "T": {"type": "DT_FLOAT"}, "explicit_paddings": {"list": {}}, "dilations": {"list": {"i": ["1", "1", "1", "1"]}}}}, {"name": "StatefulPartitionedCall/model_4/expanded_conv_5/squeeze_excite/Conv_1/BiasAdd", "op": "_FusedConv2D", "input": ["StatefulPartitionedCall/model_4/expanded_conv_5/squeeze_excite/Relu/Relu", "StatefulPartitionedCall/model_4/expanded_conv_5/squeeze_excite/Conv_1/Conv2D/ReadVariableOp", "StatefulPartitionedCall/model_4/expanded_conv_5/squeeze_excite/Conv_1/BiasAdd/ReadVariableOp"], "device": "/device:CPU:0", "attr": {"num_host_args": {"i": "0"}, "data_format": {"s": "TkhXQw=="}, "filter_format": {"s": "SFdJTw=="}, "fused_ops": {"list": {"s": ["Qmlhc0FkZA=="]}}, "num_args": {"i": "1"}, "strides": {"list": {"i": ["1", "1", "1", "1"]}}, "TArgs": {"list": {"type": ["DT_FLOAT"]}}, "padding": {"s": "U0FNRQ=="}, "use_cudnn_on_gpu": {"b": true}, "leakyrelu_alpha": {"f": 0.2}, "epsilon": {"f": 0.0}, "T": {"type": "DT_FLOAT"}, "explicit_paddings": {"list": {}}, "dilations": {"list": {"i": ["1", "1", "1", "1"]}}}}, {"name": "StatefulPartitionedCall/model_4/tf.__operators__.add_87/AddV2", "op": "AddV2", "input": ["StatefulPartitionedCall/model_4/expanded_conv_5/squeeze_excite/Conv_1/BiasAdd", "StatefulPartitionedCall/model_4/tf.__operators__.add_87/y"], "attr": {"T": {"type": "DT_FLOAT"}}}, {"name": "StatefulPartitionedCall/model_4/re_lu_147/Relu6", "op": "Relu6", "input": ["StatefulPartitionedCall/model_4/tf.__operators__.add_87/AddV2"], "attr": {"T": {"type": "DT_FLOAT"}}}, {"name": "StatefulPartitionedCall/model_4/tf.math.multiply_87/Mul", "op": "Mul", "input": ["StatefulPartitionedCall/model_4/tf.math.multiply_87/Mul/y", "StatefulPartitionedCall/model_4/re_lu_147/Relu6"], "attr": {"_grappler_ArithmeticOptimizer_MinimizeBroadcasts": {"b": true}, "T": {"type": "DT_FLOAT"}}}, {"name": "StatefulPartitionedCall/model_4/expanded_conv_5/squeeze_excite/Mul/mul", "op": "Mul", "input": ["StatefulPartitionedCall/model_4/tf.math.multiply_87/Mul", "StatefulPartitionedCall/model_4/expanded_conv_5/depthwise/depthwise"], "attr": {"_grappler_ArithmeticOptimizer_MinimizeBroadcasts": {"b": true}, "T": {"type": "DT_FLOAT"}}}, {"name": "StatefulPartitionedCall/model_4/expanded_conv_5/project/BatchNorm/FusedBatchNormV3", "op": "_FusedConv2D", "input": ["StatefulPartitionedCall/model_4/expanded_conv_5/squeeze_excite/Mul/mul", "StatefulPartitionedCall/model_4/expanded_conv_5/project/Conv2D_weights", "StatefulPartitionedCall/model_4/expanded_conv_5/project/Conv2D_bn_offset"], "device": "/device:CPU:0", "attr": {"num_host_args": {"i": "0"}, "data_format": {"s": "TkhXQw=="}, "filter_format": {"s": "SFdJTw=="}, "fused_ops": {"list": {"s": ["Qmlhc0FkZA=="]}}, "num_args": {"i": "1"}, "strides": {"list": {"i": ["1", "1", "1", "1"]}}, "TArgs": {"list": {"type": ["DT_FLOAT"]}}, "padding": {"s": "U0FNRQ=="}, "use_cudnn_on_gpu": {"b": true}, "leakyrelu_alpha": {"f": 0.2}, "epsilon": {"f": 0.0}, "T": {"type": "DT_FLOAT"}, "explicit_paddings": {"list": {}}, "dilations": {"list": {"i": ["1", "1", "1", "1"]}}}}, {"name": "StatefulPartitionedCall/model_4/expanded_conv_5/Add/add", "op": "AddV2", "input": ["StatefulPartitionedCall/model_4/expanded_conv_4/Add/add", "StatefulPartitionedCall/model_4/expanded_conv_5/project/BatchNorm/FusedBatchNormV3"], "attr": {"T": {"type": "DT_FLOAT"}}}, {"name": "StatefulPartitionedCall/model_4/expanded_conv_6/expand/BatchNorm/FusedBatchNormV3", "op": "_FusedConv2D", "input": ["StatefulPartitionedCall/model_4/expanded_conv_5/Add/add", "StatefulPartitionedCall/model_4/expanded_conv_6/expand/Conv2D_weights", "StatefulPartitionedCall/model_4/expanded_conv_6/expand/Conv2D_bn_offset"], "device": "/device:CPU:0", "attr": {"num_host_args": {"i": "0"}, "data_format": {"s": "TkhXQw=="}, "filter_format": {"s": "SFdJTw=="}, "strides": {"list": {"i": ["1", "1", "1", "1"]}}, "num_args": {"i": "1"}, "fused_ops": {"list": {"s": ["Qmlhc0FkZA=="]}}, "TArgs": {"list": {"type": ["DT_FLOAT"]}}, "padding": {"s": "U0FNRQ=="}, "use_cudnn_on_gpu": {"b": true}, "leakyrelu_alpha": {"f": 0.2}, "epsilon": {"f": 0.0}, "T": {"type": "DT_FLOAT"}, "explicit_paddings": {"list": {}}, "dilations": {"list": {"i": ["1", "1", "1", "1"]}}}}, {"name": "StatefulPartitionedCall/model_4/tf.math.multiply_88/Mul", "op": "Mul", "input": ["StatefulPartitionedCall/model_4/tf.math.multiply_88/Mul/y", "StatefulPartitionedCall/model_4/expanded_conv_6/expand/BatchNorm/FusedBatchNormV3"], "attr": {"_grappler_ArithmeticOptimizer_MinimizeBroadcasts": {"b": true}, "T": {"type": "DT_FLOAT"}}}, {"name": "StatefulPartitionedCall/model_4/tf.__operators__.add_88/AddV2", "op": "AddV2", "input": ["StatefulPartitionedCall/model_4/expanded_conv_6/expand/BatchNorm/FusedBatchNormV3", "StatefulPartitionedCall/model_4/tf.__operators__.add_88/y"], "attr": {"T": {"type": "DT_FLOAT"}}}, {"name": "StatefulPartitionedCall/model_4/re_lu_148/Relu6", "op": "Relu6", "input": ["StatefulPartitionedCall/model_4/tf.__operators__.add_88/AddV2"], "attr": {"T": {"type": "DT_FLOAT"}}}, {"name": "StatefulPartitionedCall/model_4/multiply_61/mul", "op": "Mul", "input": ["StatefulPartitionedCall/model_4/tf.math.multiply_88/Mul", "StatefulPartitionedCall/model_4/re_lu_148/Relu6"], "attr": {"_grappler_ArithmeticOptimizer_MinimizeBroadcasts": {"b": true}, "T": {"type": "DT_FLOAT"}}}, {"name": "StatefulPartitionedCall/model_4/expanded_conv_6/depthwise/pad/Pad", "op": "Pad", "input": ["StatefulPartitionedCall/model_4/multiply_61/mul", "StatefulPartitionedCall/model_4/expanded_conv_6/depthwise/pad/Pad/paddings"], "attr": {"Tpaddings": {"type": "DT_INT32"}, "T": {"type": "DT_FLOAT"}}}, {"name": "StatefulPartitionedCall/model_4/expanded_conv_6/depthwise/depthwise", "op": "FusedDepthwiseConv2dNative", "input": ["StatefulPartitionedCall/model_4/expanded_conv_6/depthwise/pad/Pad", "StatefulPartitionedCall/model_4/expanded_conv_6/depthwise/depthwise_weights", "StatefulPartitionedCall/model_4/expanded_conv_6/depthwise/depthwise_bn_offset"], "attr": {"padding": {"s": "VkFMSUQ="}, "data_format": {"s": "TkhXQw=="}, "strides": {"list": {"i": ["1", "2", "2", "1"]}}, "num_args": {"i": "1"}, "fused_ops": {"list": {"s": ["Qmlhc0FkZA=="]}}, "T": {"type": "DT_FLOAT"}, "explicit_paddings": {"list": {}}, "dilations": {"list": {"i": ["1", "1", "1", "1"]}}}}, {"name": "StatefulPartitionedCall/model_4/tf.math.multiply_89/Mul", "op": "Mul", "input": ["StatefulPartitionedCall/model_4/tf.math.multiply_89/Mul/y", "StatefulPartitionedCall/model_4/expanded_conv_6/depthwise/depthwise"], "attr": {"_grappler_ArithmeticOptimizer_MinimizeBroadcasts": {"b": true}, "T": {"type": "DT_FLOAT"}}}, {"name": "StatefulPartitionedCall/model_4/tf.__operators__.add_89/AddV2", "op": "AddV2", "input": ["StatefulPartitionedCall/model_4/expanded_conv_6/depthwise/depthwise", "StatefulPartitionedCall/model_4/tf.__operators__.add_89/y"], "attr": {"T": {"type": "DT_FLOAT"}}}, {"name": "StatefulPartitionedCall/model_4/re_lu_149/Relu6", "op": "Relu6", "input": ["StatefulPartitionedCall/model_4/tf.__operators__.add_89/AddV2"], "attr": {"T": {"type": "DT_FLOAT"}}}, {"name": "StatefulPartitionedCall/model_4/multiply_62/mul", "op": "Mul", "input": ["StatefulPartitionedCall/model_4/tf.math.multiply_89/Mul", "StatefulPartitionedCall/model_4/re_lu_149/Relu6"], "attr": {"_grappler_ArithmeticOptimizer_MinimizeBroadcasts": {"b": true}, "T": {"type": "DT_FLOAT"}}}, {"name": "StatefulPartitionedCall/model_4/expanded_conv_6/project/BatchNorm/FusedBatchNormV3", "op": "_FusedConv2D", "input": ["StatefulPartitionedCall/model_4/multiply_62/mul", "StatefulPartitionedCall/model_4/expanded_conv_6/project/Conv2D_weights", "StatefulPartitionedCall/model_4/expanded_conv_6/project/Conv2D_bn_offset"], "device": "/device:CPU:0", "attr": {"num_host_args": {"i": "0"}, "data_format": {"s": "TkhXQw=="}, "filter_format": {"s": "SFdJTw=="}, "fused_ops": {"list": {"s": ["Qmlhc0FkZA=="]}}, "num_args": {"i": "1"}, "strides": {"list": {"i": ["1", "1", "1", "1"]}}, "TArgs": {"list": {"type": ["DT_FLOAT"]}}, "padding": {"s": "U0FNRQ=="}, "use_cudnn_on_gpu": {"b": true}, "leakyrelu_alpha": {"f": 0.2}, "epsilon": {"f": 0.0}, "T": {"type": "DT_FLOAT"}, "explicit_paddings": {"list": {}}, "dilations": {"list": {"i": ["1", "1", "1", "1"]}}}}, {"name": "StatefulPartitionedCall/model_4/expanded_conv_7/expand/BatchNorm/FusedBatchNormV3", "op": "_FusedConv2D", "input": ["StatefulPartitionedCall/model_4/expanded_conv_6/project/BatchNorm/FusedBatchNormV3", "StatefulPartitionedCall/model_4/expanded_conv_7/expand/Conv2D_weights", "StatefulPartitionedCall/model_4/expanded_conv_7/expand/Conv2D_bn_offset"], "device": "/device:CPU:0", "attr": {"num_host_args": {"i": "0"}, "data_format": {"s": "TkhXQw=="}, "filter_format": {"s": "SFdJTw=="}, "fused_ops": {"list": {"s": ["Qmlhc0FkZA=="]}}, "num_args": {"i": "1"}, "strides": {"list": {"i": ["1", "1", "1", "1"]}}, "TArgs": {"list": {"type": ["DT_FLOAT"]}}, "padding": {"s": "U0FNRQ=="}, "use_cudnn_on_gpu": {"b": true}, "leakyrelu_alpha": {"f": 0.2}, "epsilon": {"f": 0.0}, "T": {"type": "DT_FLOAT"}, "explicit_paddings": {"list": {}}, "dilations": {"list": {"i": ["1", "1", "1", "1"]}}}}, {"name": "StatefulPartitionedCall/model_4/tf.math.multiply_90/Mul", "op": "Mul", "input": ["StatefulPartitionedCall/model_4/tf.math.multiply_90/Mul/y", "StatefulPartitionedCall/model_4/expanded_conv_7/expand/BatchNorm/FusedBatchNormV3"], "attr": {"_grappler_ArithmeticOptimizer_MinimizeBroadcasts": {"b": true}, "T": {"type": "DT_FLOAT"}}}, {"name": "StatefulPartitionedCall/model_4/tf.__operators__.add_90/AddV2", "op": "AddV2", "input": ["StatefulPartitionedCall/model_4/expanded_conv_7/expand/BatchNorm/FusedBatchNormV3", "StatefulPartitionedCall/model_4/tf.__operators__.add_90/y"], "attr": {"T": {"type": "DT_FLOAT"}}}, {"name": "StatefulPartitionedCall/model_4/re_lu_150/Relu6", "op": "Relu6", "input": ["StatefulPartitionedCall/model_4/tf.__operators__.add_90/AddV2"], "attr": {"T": {"type": "DT_FLOAT"}}}, {"name": "StatefulPartitionedCall/model_4/multiply_63/mul", "op": "Mul", "input": ["StatefulPartitionedCall/model_4/tf.math.multiply_90/Mul", "StatefulPartitionedCall/model_4/re_lu_150/Relu6"], "attr": {"_grappler_ArithmeticOptimizer_MinimizeBroadcasts": {"b": true}, "T": {"type": "DT_FLOAT"}}}, {"name": "StatefulPartitionedCall/model_4/expanded_conv_7/depthwise/depthwise", "op": "FusedDepthwiseConv2dNative", "input": ["StatefulPartitionedCall/model_4/multiply_63/mul", "StatefulPartitionedCall/model_4/expanded_conv_7/depthwise/depthwise_weights", "StatefulPartitionedCall/model_4/expanded_conv_7/depthwise/depthwise_bn_offset"], "attr": {"padding": {"s": "U0FNRQ=="}, "data_format": {"s": "TkhXQw=="}, "strides": {"list": {"i": ["1", "1", "1", "1"]}}, "num_args": {"i": "1"}, "fused_ops": {"list": {"s": ["Qmlhc0FkZA=="]}}, "T": {"type": "DT_FLOAT"}, "explicit_paddings": {"list": {}}, "dilations": {"list": {"i": ["1", "1", "1", "1"]}}}}, {"name": "StatefulPartitionedCall/model_4/tf.math.multiply_91/Mul", "op": "Mul", "input": ["StatefulPartitionedCall/model_4/tf.math.multiply_91/Mul/y", "StatefulPartitionedCall/model_4/expanded_conv_7/depthwise/depthwise"], "attr": {"_grappler_ArithmeticOptimizer_MinimizeBroadcasts": {"b": true}, "T": {"type": "DT_FLOAT"}}}, {"name": "StatefulPartitionedCall/model_4/tf.__operators__.add_91/AddV2", "op": "AddV2", "input": ["StatefulPartitionedCall/model_4/expanded_conv_7/depthwise/depthwise", "StatefulPartitionedCall/model_4/tf.__operators__.add_91/y"], "attr": {"T": {"type": "DT_FLOAT"}}}, {"name": "StatefulPartitionedCall/model_4/re_lu_151/Relu6", "op": "Relu6", "input": ["StatefulPartitionedCall/model_4/tf.__operators__.add_91/AddV2"], "attr": {"T": {"type": "DT_FLOAT"}}}, {"name": "StatefulPartitionedCall/model_4/multiply_64/mul", "op": "Mul", "input": ["StatefulPartitionedCall/model_4/tf.math.multiply_91/Mul", "StatefulPartitionedCall/model_4/re_lu_151/Relu6"], "attr": {"_grappler_ArithmeticOptimizer_MinimizeBroadcasts": {"b": true}, "T": {"type": "DT_FLOAT"}}}, {"name": "StatefulPartitionedCall/model_4/expanded_conv_7/project/BatchNorm/FusedBatchNormV3", "op": "_FusedConv2D", "input": ["StatefulPartitionedCall/model_4/multiply_64/mul", "StatefulPartitionedCall/model_4/expanded_conv_7/project/Conv2D_weights", "StatefulPartitionedCall/model_4/expanded_conv_7/project/Conv2D_bn_offset"], "device": "/device:CPU:0", "attr": {"num_host_args": {"i": "0"}, "data_format": {"s": "TkhXQw=="}, "filter_format": {"s": "SFdJTw=="}, "fused_ops": {"list": {"s": ["Qmlhc0FkZA=="]}}, "num_args": {"i": "1"}, "strides": {"list": {"i": ["1", "1", "1", "1"]}}, "TArgs": {"list": {"type": ["DT_FLOAT"]}}, "padding": {"s": "U0FNRQ=="}, "use_cudnn_on_gpu": {"b": true}, "leakyrelu_alpha": {"f": 0.2}, "epsilon": {"f": 0.0}, "T": {"type": "DT_FLOAT"}, "explicit_paddings": {"list": {}}, "dilations": {"list": {"i": ["1", "1", "1", "1"]}}}}, {"name": "StatefulPartitionedCall/model_4/expanded_conv_7/Add/add", "op": "AddV2", "input": ["StatefulPartitionedCall/model_4/expanded_conv_6/project/BatchNorm/FusedBatchNormV3", "StatefulPartitionedCall/model_4/expanded_conv_7/project/BatchNorm/FusedBatchNormV3"], "attr": {"T": {"type": "DT_FLOAT"}}}, {"name": "StatefulPartitionedCall/model_4/expanded_conv_8/expand/BatchNorm/FusedBatchNormV3", "op": "_FusedConv2D", "input": ["StatefulPartitionedCall/model_4/expanded_conv_7/Add/add", "StatefulPartitionedCall/model_4/expanded_conv_8/expand/Conv2D_weights", "StatefulPartitionedCall/model_4/expanded_conv_8/expand/Conv2D_bn_offset"], "device": "/device:CPU:0", "attr": {"num_host_args": {"i": "0"}, "data_format": {"s": "TkhXQw=="}, "filter_format": {"s": "SFdJTw=="}, "fused_ops": {"list": {"s": ["Qmlhc0FkZA=="]}}, "num_args": {"i": "1"}, "strides": {"list": {"i": ["1", "1", "1", "1"]}}, "TArgs": {"list": {"type": ["DT_FLOAT"]}}, "padding": {"s": "U0FNRQ=="}, "use_cudnn_on_gpu": {"b": true}, "leakyrelu_alpha": {"f": 0.2}, "epsilon": {"f": 0.0}, "T": {"type": "DT_FLOAT"}, "explicit_paddings": {"list": {}}, "dilations": {"list": {"i": ["1", "1", "1", "1"]}}}}, {"name": "StatefulPartitionedCall/model_4/tf.math.multiply_92/Mul", "op": "Mul", "input": ["StatefulPartitionedCall/model_4/tf.math.multiply_92/Mul/y", "StatefulPartitionedCall/model_4/expanded_conv_8/expand/BatchNorm/FusedBatchNormV3"], "attr": {"_grappler_ArithmeticOptimizer_MinimizeBroadcasts": {"b": true}, "T": {"type": "DT_FLOAT"}}}, {"name": "StatefulPartitionedCall/model_4/tf.__operators__.add_92/AddV2", "op": "AddV2", "input": ["StatefulPartitionedCall/model_4/expanded_conv_8/expand/BatchNorm/FusedBatchNormV3", "StatefulPartitionedCall/model_4/tf.__operators__.add_92/y"], "attr": {"T": {"type": "DT_FLOAT"}}}, {"name": "StatefulPartitionedCall/model_4/re_lu_152/Relu6", "op": "Relu6", "input": ["StatefulPartitionedCall/model_4/tf.__operators__.add_92/AddV2"], "attr": {"T": {"type": "DT_FLOAT"}}}, {"name": "StatefulPartitionedCall/model_4/multiply_65/mul", "op": "Mul", "input": ["StatefulPartitionedCall/model_4/tf.math.multiply_92/Mul", "StatefulPartitionedCall/model_4/re_lu_152/Relu6"], "attr": {"_grappler_ArithmeticOptimizer_MinimizeBroadcasts": {"b": true}, "T": {"type": "DT_FLOAT"}}}, {"name": "StatefulPartitionedCall/model_4/expanded_conv_8/depthwise/depthwise", "op": "FusedDepthwiseConv2dNative", "input": ["StatefulPartitionedCall/model_4/multiply_65/mul", "StatefulPartitionedCall/model_4/expanded_conv_8/depthwise/depthwise_weights", "StatefulPartitionedCall/model_4/expanded_conv_8/depthwise/depthwise_bn_offset"], "attr": {"padding": {"s": "U0FNRQ=="}, "data_format": {"s": "TkhXQw=="}, "strides": {"list": {"i": ["1", "1", "1", "1"]}}, "num_args": {"i": "1"}, "fused_ops": {"list": {"s": ["Qmlhc0FkZA=="]}}, "T": {"type": "DT_FLOAT"}, "explicit_paddings": {"list": {}}, "dilations": {"list": {"i": ["1", "1", "1", "1"]}}}}, {"name": "StatefulPartitionedCall/model_4/tf.math.multiply_93/Mul", "op": "Mul", "input": ["StatefulPartitionedCall/model_4/tf.math.multiply_93/Mul/y", "StatefulPartitionedCall/model_4/expanded_conv_8/depthwise/depthwise"], "attr": {"_grappler_ArithmeticOptimizer_MinimizeBroadcasts": {"b": true}, "T": {"type": "DT_FLOAT"}}}, {"name": "StatefulPartitionedCall/model_4/tf.__operators__.add_93/AddV2", "op": "AddV2", "input": ["StatefulPartitionedCall/model_4/expanded_conv_8/depthwise/depthwise", "StatefulPartitionedCall/model_4/tf.__operators__.add_93/y"], "attr": {"T": {"type": "DT_FLOAT"}}}, {"name": "StatefulPartitionedCall/model_4/re_lu_153/Relu6", "op": "Relu6", "input": ["StatefulPartitionedCall/model_4/tf.__operators__.add_93/AddV2"], "attr": {"T": {"type": "DT_FLOAT"}}}, {"name": "StatefulPartitionedCall/model_4/multiply_66/mul", "op": "Mul", "input": ["StatefulPartitionedCall/model_4/tf.math.multiply_93/Mul", "StatefulPartitionedCall/model_4/re_lu_153/Relu6"], "attr": {"_grappler_ArithmeticOptimizer_MinimizeBroadcasts": {"b": true}, "T": {"type": "DT_FLOAT"}}}, {"name": "StatefulPartitionedCall/model_4/expanded_conv_8/project/BatchNorm/FusedBatchNormV3", "op": "_FusedConv2D", "input": ["StatefulPartitionedCall/model_4/multiply_66/mul", "StatefulPartitionedCall/model_4/expanded_conv_8/project/Conv2D_weights", "StatefulPartitionedCall/model_4/expanded_conv_8/project/Conv2D_bn_offset"], "device": "/device:CPU:0", "attr": {"num_host_args": {"i": "0"}, "data_format": {"s": "TkhXQw=="}, "filter_format": {"s": "SFdJTw=="}, "strides": {"list": {"i": ["1", "1", "1", "1"]}}, "num_args": {"i": "1"}, "fused_ops": {"list": {"s": ["Qmlhc0FkZA=="]}}, "TArgs": {"list": {"type": ["DT_FLOAT"]}}, "padding": {"s": "U0FNRQ=="}, "use_cudnn_on_gpu": {"b": true}, "leakyrelu_alpha": {"f": 0.2}, "epsilon": {"f": 0.0}, "T": {"type": "DT_FLOAT"}, "explicit_paddings": {"list": {}}, "dilations": {"list": {"i": ["1", "1", "1", "1"]}}}}, {"name": "StatefulPartitionedCall/model_4/expanded_conv_8/Add/add", "op": "AddV2", "input": ["StatefulPartitionedCall/model_4/expanded_conv_7/Add/add", "StatefulPartitionedCall/model_4/expanded_conv_8/project/BatchNorm/FusedBatchNormV3"], "attr": {"T": {"type": "DT_FLOAT"}}}, {"name": "StatefulPartitionedCall/model_4/expanded_conv_9/expand/BatchNorm/FusedBatchNormV3", "op": "_FusedConv2D", "input": ["StatefulPartitionedCall/model_4/expanded_conv_8/Add/add", "StatefulPartitionedCall/model_4/expanded_conv_9/expand/Conv2D_weights", "StatefulPartitionedCall/model_4/expanded_conv_9/expand/Conv2D_bn_offset"], "device": "/device:CPU:0", "attr": {"num_host_args": {"i": "0"}, "data_format": {"s": "TkhXQw=="}, "filter_format": {"s": "SFdJTw=="}, "fused_ops": {"list": {"s": ["Qmlhc0FkZA=="]}}, "num_args": {"i": "1"}, "strides": {"list": {"i": ["1", "1", "1", "1"]}}, "TArgs": {"list": {"type": ["DT_FLOAT"]}}, "padding": {"s": "U0FNRQ=="}, "use_cudnn_on_gpu": {"b": true}, "leakyrelu_alpha": {"f": 0.2}, "epsilon": {"f": 0.0}, "T": {"type": "DT_FLOAT"}, "explicit_paddings": {"list": {}}, "dilations": {"list": {"i": ["1", "1", "1", "1"]}}}}, {"name": "StatefulPartitionedCall/model_4/tf.math.multiply_94/Mul", "op": "Mul", "input": ["StatefulPartitionedCall/model_4/tf.math.multiply_94/Mul/y", "StatefulPartitionedCall/model_4/expanded_conv_9/expand/BatchNorm/FusedBatchNormV3"], "attr": {"_grappler_ArithmeticOptimizer_MinimizeBroadcasts": {"b": true}, "T": {"type": "DT_FLOAT"}}}, {"name": "StatefulPartitionedCall/model_4/tf.__operators__.add_94/AddV2", "op": "AddV2", "input": ["StatefulPartitionedCall/model_4/expanded_conv_9/expand/BatchNorm/FusedBatchNormV3", "StatefulPartitionedCall/model_4/tf.__operators__.add_94/y"], "attr": {"T": {"type": "DT_FLOAT"}}}, {"name": "StatefulPartitionedCall/model_4/re_lu_154/Relu6", "op": "Relu6", "input": ["StatefulPartitionedCall/model_4/tf.__operators__.add_94/AddV2"], "attr": {"T": {"type": "DT_FLOAT"}}}, {"name": "StatefulPartitionedCall/model_4/multiply_67/mul", "op": "Mul", "input": ["StatefulPartitionedCall/model_4/tf.math.multiply_94/Mul", "StatefulPartitionedCall/model_4/re_lu_154/Relu6"], "attr": {"_grappler_ArithmeticOptimizer_MinimizeBroadcasts": {"b": true}, "T": {"type": "DT_FLOAT"}}}, {"name": "StatefulPartitionedCall/model_4/expanded_conv_9/depthwise/depthwise", "op": "FusedDepthwiseConv2dNative", "input": ["StatefulPartitionedCall/model_4/multiply_67/mul", "StatefulPartitionedCall/model_4/expanded_conv_9/depthwise/depthwise_weights", "StatefulPartitionedCall/model_4/expanded_conv_9/depthwise/depthwise_bn_offset"], "attr": {"padding": {"s": "U0FNRQ=="}, "data_format": {"s": "TkhXQw=="}, "strides": {"list": {"i": ["1", "1", "1", "1"]}}, "num_args": {"i": "1"}, "fused_ops": {"list": {"s": ["Qmlhc0FkZA=="]}}, "T": {"type": "DT_FLOAT"}, "explicit_paddings": {"list": {}}, "dilations": {"list": {"i": ["1", "1", "1", "1"]}}}}, {"name": "StatefulPartitionedCall/model_4/tf.math.multiply_95/Mul", "op": "Mul", "input": ["StatefulPartitionedCall/model_4/tf.math.multiply_95/Mul/y", "StatefulPartitionedCall/model_4/expanded_conv_9/depthwise/depthwise"], "attr": {"_grappler_ArithmeticOptimizer_MinimizeBroadcasts": {"b": true}, "T": {"type": "DT_FLOAT"}}}, {"name": "StatefulPartitionedCall/model_4/tf.__operators__.add_95/AddV2", "op": "AddV2", "input": ["StatefulPartitionedCall/model_4/expanded_conv_9/depthwise/depthwise", "StatefulPartitionedCall/model_4/tf.__operators__.add_95/y"], "attr": {"T": {"type": "DT_FLOAT"}}}, {"name": "StatefulPartitionedCall/model_4/re_lu_155/Relu6", "op": "Relu6", "input": ["StatefulPartitionedCall/model_4/tf.__operators__.add_95/AddV2"], "attr": {"T": {"type": "DT_FLOAT"}}}, {"name": "StatefulPartitionedCall/model_4/multiply_68/mul", "op": "Mul", "input": ["StatefulPartitionedCall/model_4/tf.math.multiply_95/Mul", "StatefulPartitionedCall/model_4/re_lu_155/Relu6"], "attr": {"_grappler_ArithmeticOptimizer_MinimizeBroadcasts": {"b": true}, "T": {"type": "DT_FLOAT"}}}, {"name": "StatefulPartitionedCall/model_4/expanded_conv_9/project/BatchNorm/FusedBatchNormV3", "op": "_FusedConv2D", "input": ["StatefulPartitionedCall/model_4/multiply_68/mul", "StatefulPartitionedCall/model_4/expanded_conv_9/project/Conv2D_weights", "StatefulPartitionedCall/model_4/expanded_conv_9/project/Conv2D_bn_offset"], "device": "/device:CPU:0", "attr": {"num_host_args": {"i": "0"}, "data_format": {"s": "TkhXQw=="}, "filter_format": {"s": "SFdJTw=="}, "strides": {"list": {"i": ["1", "1", "1", "1"]}}, "num_args": {"i": "1"}, "fused_ops": {"list": {"s": ["Qmlhc0FkZA=="]}}, "TArgs": {"list": {"type": ["DT_FLOAT"]}}, "padding": {"s": "U0FNRQ=="}, "use_cudnn_on_gpu": {"b": true}, "leakyrelu_alpha": {"f": 0.2}, "epsilon": {"f": 0.0}, "T": {"type": "DT_FLOAT"}, "explicit_paddings": {"list": {}}, "dilations": {"list": {"i": ["1", "1", "1", "1"]}}}}, {"name": "StatefulPartitionedCall/model_4/expanded_conv_9/Add/add", "op": "AddV2", "input": ["StatefulPartitionedCall/model_4/expanded_conv_8/Add/add", "StatefulPartitionedCall/model_4/expanded_conv_9/project/BatchNorm/FusedBatchNormV3"], "attr": {"T": {"type": "DT_FLOAT"}}}, {"name": "StatefulPartitionedCall/model_4/expanded_conv_10/expand/BatchNorm/FusedBatchNormV3", "op": "_FusedConv2D", "input": ["StatefulPartitionedCall/model_4/expanded_conv_9/Add/add", "StatefulPartitionedCall/model_4/expanded_conv_10/expand/Conv2D_weights", "StatefulPartitionedCall/model_4/expanded_conv_10/expand/Conv2D_bn_offset"], "device": "/device:CPU:0", "attr": {"num_host_args": {"i": "0"}, "data_format": {"s": "TkhXQw=="}, "filter_format": {"s": "SFdJTw=="}, "fused_ops": {"list": {"s": ["Qmlhc0FkZA=="]}}, "num_args": {"i": "1"}, "strides": {"list": {"i": ["1", "1", "1", "1"]}}, "TArgs": {"list": {"type": ["DT_FLOAT"]}}, "padding": {"s": "U0FNRQ=="}, "use_cudnn_on_gpu": {"b": true}, "leakyrelu_alpha": {"f": 0.2}, "epsilon": {"f": 0.0}, "T": {"type": "DT_FLOAT"}, "explicit_paddings": {"list": {}}, "dilations": {"list": {"i": ["1", "1", "1", "1"]}}}}, {"name": "StatefulPartitionedCall/model_4/tf.math.multiply_96/Mul", "op": "Mul", "input": ["StatefulPartitionedCall/model_4/tf.math.multiply_96/Mul/y", "StatefulPartitionedCall/model_4/expanded_conv_10/expand/BatchNorm/FusedBatchNormV3"], "attr": {"_grappler_ArithmeticOptimizer_MinimizeBroadcasts": {"b": true}, "T": {"type": "DT_FLOAT"}}}, {"name": "StatefulPartitionedCall/model_4/tf.__operators__.add_96/AddV2", "op": "AddV2", "input": ["StatefulPartitionedCall/model_4/expanded_conv_10/expand/BatchNorm/FusedBatchNormV3", "StatefulPartitionedCall/model_4/tf.__operators__.add_96/y"], "attr": {"T": {"type": "DT_FLOAT"}}}, {"name": "StatefulPartitionedCall/model_4/re_lu_156/Relu6", "op": "Relu6", "input": ["StatefulPartitionedCall/model_4/tf.__operators__.add_96/AddV2"], "attr": {"T": {"type": "DT_FLOAT"}}}, {"name": "StatefulPartitionedCall/model_4/multiply_69/mul", "op": "Mul", "input": ["StatefulPartitionedCall/model_4/tf.math.multiply_96/Mul", "StatefulPartitionedCall/model_4/re_lu_156/Relu6"], "attr": {"_grappler_ArithmeticOptimizer_MinimizeBroadcasts": {"b": true}, "T": {"type": "DT_FLOAT"}}}, {"name": "StatefulPartitionedCall/model_4/expanded_conv_10/depthwise/depthwise", "op": "FusedDepthwiseConv2dNative", "input": ["StatefulPartitionedCall/model_4/multiply_69/mul", "StatefulPartitionedCall/model_4/expanded_conv_10/depthwise/depthwise_weights", "StatefulPartitionedCall/model_4/expanded_conv_10/depthwise/depthwise_bn_offset"], "attr": {"padding": {"s": "U0FNRQ=="}, "data_format": {"s": "TkhXQw=="}, "strides": {"list": {"i": ["1", "1", "1", "1"]}}, "num_args": {"i": "1"}, "fused_ops": {"list": {"s": ["Qmlhc0FkZA=="]}}, "T": {"type": "DT_FLOAT"}, "explicit_paddings": {"list": {}}, "dilations": {"list": {"i": ["1", "1", "1", "1"]}}}}, {"name": "StatefulPartitionedCall/model_4/tf.math.multiply_97/Mul", "op": "Mul", "input": ["StatefulPartitionedCall/model_4/tf.math.multiply_97/Mul/y", "StatefulPartitionedCall/model_4/expanded_conv_10/depthwise/depthwise"], "attr": {"_grappler_ArithmeticOptimizer_MinimizeBroadcasts": {"b": true}, "T": {"type": "DT_FLOAT"}}}, {"name": "StatefulPartitionedCall/model_4/tf.__operators__.add_97/AddV2", "op": "AddV2", "input": ["StatefulPartitionedCall/model_4/expanded_conv_10/depthwise/depthwise", "StatefulPartitionedCall/model_4/tf.__operators__.add_97/y"], "attr": {"T": {"type": "DT_FLOAT"}}}, {"name": "StatefulPartitionedCall/model_4/re_lu_157/Relu6", "op": "Relu6", "input": ["StatefulPartitionedCall/model_4/tf.__operators__.add_97/AddV2"], "attr": {"T": {"type": "DT_FLOAT"}}}, {"name": "StatefulPartitionedCall/model_4/multiply_70/mul", "op": "Mul", "input": ["StatefulPartitionedCall/model_4/tf.math.multiply_97/Mul", "StatefulPartitionedCall/model_4/re_lu_157/Relu6"], "attr": {"_grappler_ArithmeticOptimizer_MinimizeBroadcasts": {"b": true}, "T": {"type": "DT_FLOAT"}}}, {"name": "StatefulPartitionedCall/model_4/expanded_conv_10/squeeze_excite/AvgPool/Mean", "op": "Mean", "input": ["StatefulPartitionedCall/model_4/multiply_70/mul", "StatefulPartitionedCall/model_4/expanded_conv_10/squeeze_excite/AvgPool/Mean/reduction_indices"], "attr": {"Tidx": {"type": "DT_INT32"}, "T": {"type": "DT_FLOAT"}, "keep_dims": {"b": true}}}, {"name": "StatefulPartitionedCall/model_4/expanded_conv_10/squeeze_excite/Relu/Relu", "op": "_FusedConv2D", "input": ["StatefulPartitionedCall/model_4/expanded_conv_10/squeeze_excite/AvgPool/Mean", "StatefulPartitionedCall/model_4/expanded_conv_10/squeeze_excite/Conv/Conv2D/ReadVariableOp", "StatefulPartitionedCall/model_4/expanded_conv_10/squeeze_excite/Conv/BiasAdd/ReadVariableOp"], "device": "/device:CPU:0", "attr": {"num_host_args": {"i": "0"}, "data_format": {"s": "TkhXQw=="}, "filter_format": {"s": "SFdJTw=="}, "fused_ops": {"list": {"s": ["Qmlhc0FkZA==", "UmVsdQ=="]}}, "num_args": {"i": "1"}, "strides": {"list": {"i": ["1", "1", "1", "1"]}}, "TArgs": {"list": {"type": ["DT_FLOAT"]}}, "padding": {"s": "U0FNRQ=="}, "use_cudnn_on_gpu": {"b": true}, "leakyrelu_alpha": {"f": 0.2}, "epsilon": {"f": 0.0}, "T": {"type": "DT_FLOAT"}, "explicit_paddings": {"list": {}}, "dilations": {"list": {"i": ["1", "1", "1", "1"]}}}}, {"name": "StatefulPartitionedCall/model_4/expanded_conv_10/squeeze_excite/Conv_1/BiasAdd", "op": "_FusedConv2D", "input": ["StatefulPartitionedCall/model_4/expanded_conv_10/squeeze_excite/Relu/Relu", "StatefulPartitionedCall/model_4/expanded_conv_10/squeeze_excite/Conv_1/Conv2D/ReadVariableOp", "StatefulPartitionedCall/model_4/expanded_conv_10/squeeze_excite/Conv_1/BiasAdd/ReadVariableOp"], "device": "/device:CPU:0", "attr": {"num_host_args": {"i": "0"}, "data_format": {"s": "TkhXQw=="}, "filter_format": {"s": "SFdJTw=="}, "strides": {"list": {"i": ["1", "1", "1", "1"]}}, "num_args": {"i": "1"}, "fused_ops": {"list": {"s": ["Qmlhc0FkZA=="]}}, "TArgs": {"list": {"type": ["DT_FLOAT"]}}, "padding": {"s": "U0FNRQ=="}, "use_cudnn_on_gpu": {"b": true}, "leakyrelu_alpha": {"f": 0.2}, "epsilon": {"f": 0.0}, "T": {"type": "DT_FLOAT"}, "explicit_paddings": {"list": {}}, "dilations": {"list": {"i": ["1", "1", "1", "1"]}}}}, {"name": "StatefulPartitionedCall/model_4/tf.__operators__.add_98/AddV2", "op": "AddV2", "input": ["StatefulPartitionedCall/model_4/expanded_conv_10/squeeze_excite/Conv_1/BiasAdd", "StatefulPartitionedCall/model_4/tf.__operators__.add_98/y"], "attr": {"T": {"type": "DT_FLOAT"}}}, {"name": "StatefulPartitionedCall/model_4/re_lu_158/Relu6", "op": "Relu6", "input": ["StatefulPartitionedCall/model_4/tf.__operators__.add_98/AddV2"], "attr": {"T": {"type": "DT_FLOAT"}}}, {"name": "StatefulPartitionedCall/model_4/tf.math.multiply_98/Mul", "op": "Mul", "input": ["StatefulPartitionedCall/model_4/tf.math.multiply_98/Mul/y", "StatefulPartitionedCall/model_4/re_lu_158/Relu6"], "attr": {"_grappler_ArithmeticOptimizer_MinimizeBroadcasts": {"b": true}, "T": {"type": "DT_FLOAT"}}}, {"name": "StatefulPartitionedCall/model_4/expanded_conv_10/squeeze_excite/Mul/mul", "op": "Mul", "input": ["StatefulPartitionedCall/model_4/tf.math.multiply_98/Mul", "StatefulPartitionedCall/model_4/multiply_70/mul"], "attr": {"_grappler_ArithmeticOptimizer_MinimizeBroadcasts": {"b": true}, "T": {"type": "DT_FLOAT"}}}, {"name": "StatefulPartitionedCall/model_4/expanded_conv_10/project/BatchNorm/FusedBatchNormV3", "op": "_FusedConv2D", "input": ["StatefulPartitionedCall/model_4/expanded_conv_10/squeeze_excite/Mul/mul", "StatefulPartitionedCall/model_4/expanded_conv_10/project/Conv2D_weights", "StatefulPartitionedCall/model_4/expanded_conv_10/project/Conv2D_bn_offset"], "device": "/device:CPU:0", "attr": {"num_host_args": {"i": "0"}, "data_format": {"s": "TkhXQw=="}, "filter_format": {"s": "SFdJTw=="}, "strides": {"list": {"i": ["1", "1", "1", "1"]}}, "num_args": {"i": "1"}, "fused_ops": {"list": {"s": ["Qmlhc0FkZA=="]}}, "TArgs": {"list": {"type": ["DT_FLOAT"]}}, "padding": {"s": "U0FNRQ=="}, "use_cudnn_on_gpu": {"b": true}, "leakyrelu_alpha": {"f": 0.2}, "epsilon": {"f": 0.0}, "T": {"type": "DT_FLOAT"}, "explicit_paddings": {"list": {}}, "dilations": {"list": {"i": ["1", "1", "1", "1"]}}}}, {"name": "StatefulPartitionedCall/model_4/expanded_conv_11/expand/BatchNorm/FusedBatchNormV3", "op": "_FusedConv2D", "input": ["StatefulPartitionedCall/model_4/expanded_conv_10/project/BatchNorm/FusedBatchNormV3", "StatefulPartitionedCall/model_4/expanded_conv_11/expand/Conv2D_weights", "StatefulPartitionedCall/model_4/expanded_conv_11/expand/Conv2D_bn_offset"], "device": "/device:CPU:0", "attr": {"num_host_args": {"i": "0"}, "data_format": {"s": "TkhXQw=="}, "filter_format": {"s": "SFdJTw=="}, "strides": {"list": {"i": ["1", "1", "1", "1"]}}, "num_args": {"i": "1"}, "fused_ops": {"list": {"s": ["Qmlhc0FkZA=="]}}, "TArgs": {"list": {"type": ["DT_FLOAT"]}}, "padding": {"s": "U0FNRQ=="}, "use_cudnn_on_gpu": {"b": true}, "leakyrelu_alpha": {"f": 0.2}, "epsilon": {"f": 0.0}, "T": {"type": "DT_FLOAT"}, "explicit_paddings": {"list": {}}, "dilations": {"list": {"i": ["1", "1", "1", "1"]}}}}, {"name": "StatefulPartitionedCall/model_4/tf.math.multiply_99/Mul", "op": "Mul", "input": ["StatefulPartitionedCall/model_4/tf.math.multiply_99/Mul/y", "StatefulPartitionedCall/model_4/expanded_conv_11/expand/BatchNorm/FusedBatchNormV3"], "attr": {"_grappler_ArithmeticOptimizer_MinimizeBroadcasts": {"b": true}, "T": {"type": "DT_FLOAT"}}}, {"name": "StatefulPartitionedCall/model_4/tf.__operators__.add_99/AddV2", "op": "AddV2", "input": ["StatefulPartitionedCall/model_4/expanded_conv_11/expand/BatchNorm/FusedBatchNormV3", "StatefulPartitionedCall/model_4/tf.__operators__.add_99/y"], "attr": {"T": {"type": "DT_FLOAT"}}}, {"name": "StatefulPartitionedCall/model_4/re_lu_159/Relu6", "op": "Relu6", "input": ["StatefulPartitionedCall/model_4/tf.__operators__.add_99/AddV2"], "attr": {"T": {"type": "DT_FLOAT"}}}, {"name": "StatefulPartitionedCall/model_4/multiply_71/mul", "op": "Mul", "input": ["StatefulPartitionedCall/model_4/tf.math.multiply_99/Mul", "StatefulPartitionedCall/model_4/re_lu_159/Relu6"], "attr": {"_grappler_ArithmeticOptimizer_MinimizeBroadcasts": {"b": true}, "T": {"type": "DT_FLOAT"}}}, {"name": "StatefulPartitionedCall/model_4/expanded_conv_11/depthwise/depthwise", "op": "FusedDepthwiseConv2dNative", "input": ["StatefulPartitionedCall/model_4/multiply_71/mul", "StatefulPartitionedCall/model_4/expanded_conv_11/depthwise/depthwise_weights", "StatefulPartitionedCall/model_4/expanded_conv_11/depthwise/depthwise_bn_offset"], "attr": {"padding": {"s": "U0FNRQ=="}, "data_format": {"s": "TkhXQw=="}, "strides": {"list": {"i": ["1", "1", "1", "1"]}}, "num_args": {"i": "1"}, "fused_ops": {"list": {"s": ["Qmlhc0FkZA=="]}}, "T": {"type": "DT_FLOAT"}, "explicit_paddings": {"list": {}}, "dilations": {"list": {"i": ["1", "1", "1", "1"]}}}}, {"name": "StatefulPartitionedCall/model_4/tf.math.multiply_100/Mul", "op": "Mul", "input": ["StatefulPartitionedCall/model_4/tf.math.multiply_100/Mul/y", "StatefulPartitionedCall/model_4/expanded_conv_11/depthwise/depthwise"], "attr": {"_grappler_ArithmeticOptimizer_MinimizeBroadcasts": {"b": true}, "T": {"type": "DT_FLOAT"}}}, {"name": "StatefulPartitionedCall/model_4/tf.__operators__.add_100/AddV2", "op": "AddV2", "input": ["StatefulPartitionedCall/model_4/expanded_conv_11/depthwise/depthwise", "StatefulPartitionedCall/model_4/tf.__operators__.add_100/y"], "attr": {"T": {"type": "DT_FLOAT"}}}, {"name": "StatefulPartitionedCall/model_4/re_lu_160/Relu6", "op": "Relu6", "input": ["StatefulPartitionedCall/model_4/tf.__operators__.add_100/AddV2"], "attr": {"T": {"type": "DT_FLOAT"}}}, {"name": "StatefulPartitionedCall/model_4/multiply_72/mul", "op": "Mul", "input": ["StatefulPartitionedCall/model_4/tf.math.multiply_100/Mul", "StatefulPartitionedCall/model_4/re_lu_160/Relu6"], "attr": {"_grappler_ArithmeticOptimizer_MinimizeBroadcasts": {"b": true}, "T": {"type": "DT_FLOAT"}}}, {"name": "StatefulPartitionedCall/model_4/expanded_conv_11/squeeze_excite/AvgPool/Mean", "op": "Mean", "input": ["StatefulPartitionedCall/model_4/multiply_72/mul", "StatefulPartitionedCall/model_4/expanded_conv_11/squeeze_excite/AvgPool/Mean/reduction_indices"], "attr": {"T": {"type": "DT_FLOAT"}, "Tidx": {"type": "DT_INT32"}, "keep_dims": {"b": true}}}, {"name": "StatefulPartitionedCall/model_4/expanded_conv_11/squeeze_excite/Relu/Relu", "op": "_FusedConv2D", "input": ["StatefulPartitionedCall/model_4/expanded_conv_11/squeeze_excite/AvgPool/Mean", "StatefulPartitionedCall/model_4/expanded_conv_11/squeeze_excite/Conv/Conv2D/ReadVariableOp", "StatefulPartitionedCall/model_4/expanded_conv_11/squeeze_excite/Conv/BiasAdd/ReadVariableOp"], "device": "/device:CPU:0", "attr": {"num_host_args": {"i": "0"}, "data_format": {"s": "TkhXQw=="}, "filter_format": {"s": "SFdJTw=="}, "strides": {"list": {"i": ["1", "1", "1", "1"]}}, "num_args": {"i": "1"}, "fused_ops": {"list": {"s": ["Qmlhc0FkZA==", "UmVsdQ=="]}}, "TArgs": {"list": {"type": ["DT_FLOAT"]}}, "padding": {"s": "U0FNRQ=="}, "use_cudnn_on_gpu": {"b": true}, "leakyrelu_alpha": {"f": 0.2}, "epsilon": {"f": 0.0}, "T": {"type": "DT_FLOAT"}, "explicit_paddings": {"list": {}}, "dilations": {"list": {"i": ["1", "1", "1", "1"]}}}}, {"name": "StatefulPartitionedCall/model_4/expanded_conv_11/squeeze_excite/Conv_1/BiasAdd", "op": "_FusedConv2D", "input": ["StatefulPartitionedCall/model_4/expanded_conv_11/squeeze_excite/Relu/Relu", "StatefulPartitionedCall/model_4/expanded_conv_11/squeeze_excite/Conv_1/Conv2D/ReadVariableOp", "StatefulPartitionedCall/model_4/expanded_conv_11/squeeze_excite/Conv_1/BiasAdd/ReadVariableOp"], "device": "/device:CPU:0", "attr": {"num_host_args": {"i": "0"}, "data_format": {"s": "TkhXQw=="}, "filter_format": {"s": "SFdJTw=="}, "fused_ops": {"list": {"s": ["Qmlhc0FkZA=="]}}, "num_args": {"i": "1"}, "strides": {"list": {"i": ["1", "1", "1", "1"]}}, "TArgs": {"list": {"type": ["DT_FLOAT"]}}, "padding": {"s": "U0FNRQ=="}, "use_cudnn_on_gpu": {"b": true}, "leakyrelu_alpha": {"f": 0.2}, "epsilon": {"f": 0.0}, "T": {"type": "DT_FLOAT"}, "explicit_paddings": {"list": {}}, "dilations": {"list": {"i": ["1", "1", "1", "1"]}}}}, {"name": "StatefulPartitionedCall/model_4/tf.__operators__.add_101/AddV2", "op": "AddV2", "input": ["StatefulPartitionedCall/model_4/expanded_conv_11/squeeze_excite/Conv_1/BiasAdd", "StatefulPartitionedCall/model_4/tf.__operators__.add_101/y"], "attr": {"T": {"type": "DT_FLOAT"}}}, {"name": "StatefulPartitionedCall/model_4/re_lu_161/Relu6", "op": "Relu6", "input": ["StatefulPartitionedCall/model_4/tf.__operators__.add_101/AddV2"], "attr": {"T": {"type": "DT_FLOAT"}}}, {"name": "StatefulPartitionedCall/model_4/tf.math.multiply_101/Mul", "op": "Mul", "input": ["StatefulPartitionedCall/model_4/tf.math.multiply_101/Mul/y", "StatefulPartitionedCall/model_4/re_lu_161/Relu6"], "attr": {"_grappler_ArithmeticOptimizer_MinimizeBroadcasts": {"b": true}, "T": {"type": "DT_FLOAT"}}}, {"name": "StatefulPartitionedCall/model_4/expanded_conv_11/squeeze_excite/Mul/mul", "op": "Mul", "input": ["StatefulPartitionedCall/model_4/tf.math.multiply_101/Mul", "StatefulPartitionedCall/model_4/multiply_72/mul"], "attr": {"_grappler_ArithmeticOptimizer_MinimizeBroadcasts": {"b": true}, "T": {"type": "DT_FLOAT"}}}, {"name": "StatefulPartitionedCall/model_4/expanded_conv_11/project/BatchNorm/FusedBatchNormV3", "op": "_FusedConv2D", "input": ["StatefulPartitionedCall/model_4/expanded_conv_11/squeeze_excite/Mul/mul", "StatefulPartitionedCall/model_4/expanded_conv_11/project/Conv2D_weights", "StatefulPartitionedCall/model_4/expanded_conv_11/project/Conv2D_bn_offset"], "device": "/device:CPU:0", "attr": {"num_host_args": {"i": "0"}, "data_format": {"s": "TkhXQw=="}, "filter_format": {"s": "SFdJTw=="}, "fused_ops": {"list": {"s": ["Qmlhc0FkZA=="]}}, "num_args": {"i": "1"}, "strides": {"list": {"i": ["1", "1", "1", "1"]}}, "TArgs": {"list": {"type": ["DT_FLOAT"]}}, "padding": {"s": "U0FNRQ=="}, "use_cudnn_on_gpu": {"b": true}, "leakyrelu_alpha": {"f": 0.2}, "epsilon": {"f": 0.0}, "T": {"type": "DT_FLOAT"}, "explicit_paddings": {"list": {}}, "dilations": {"list": {"i": ["1", "1", "1", "1"]}}}}, {"name": "StatefulPartitionedCall/model_4/expanded_conv_11/Add/add", "op": "AddV2", "input": ["StatefulPartitionedCall/model_4/expanded_conv_10/project/BatchNorm/FusedBatchNormV3", "StatefulPartitionedCall/model_4/expanded_conv_11/project/BatchNorm/FusedBatchNormV3"], "attr": {"T": {"type": "DT_FLOAT"}}}, {"name": "StatefulPartitionedCall/model_4/expanded_conv_12/expand/BatchNorm/FusedBatchNormV3", "op": "_FusedConv2D", "input": ["StatefulPartitionedCall/model_4/expanded_conv_11/Add/add", "StatefulPartitionedCall/model_4/expanded_conv_12/expand/Conv2D_weights", "StatefulPartitionedCall/model_4/expanded_conv_12/expand/Conv2D_bn_offset"], "device": "/device:CPU:0", "attr": {"num_host_args": {"i": "0"}, "data_format": {"s": "TkhXQw=="}, "filter_format": {"s": "SFdJTw=="}, "fused_ops": {"list": {"s": ["Qmlhc0FkZA=="]}}, "num_args": {"i": "1"}, "strides": {"list": {"i": ["1", "1", "1", "1"]}}, "TArgs": {"list": {"type": ["DT_FLOAT"]}}, "padding": {"s": "U0FNRQ=="}, "use_cudnn_on_gpu": {"b": true}, "leakyrelu_alpha": {"f": 0.2}, "epsilon": {"f": 0.0}, "T": {"type": "DT_FLOAT"}, "explicit_paddings": {"list": {}}, "dilations": {"list": {"i": ["1", "1", "1", "1"]}}}}, {"name": "StatefulPartitionedCall/model_4/tf.__operators__.add_102/AddV2", "op": "AddV2", "input": ["StatefulPartitionedCall/model_4/expanded_conv_12/expand/BatchNorm/FusedBatchNormV3", "StatefulPartitionedCall/model_4/tf.__operators__.add_102/y"], "attr": {"T": {"type": "DT_FLOAT"}}}, {"name": "StatefulPartitionedCall/model_4/re_lu_162/Relu6", "op": "Relu6", "input": ["StatefulPartitionedCall/model_4/tf.__operators__.add_102/AddV2"], "attr": {"T": {"type": "DT_FLOAT"}}}, {"name": "StatefulPartitionedCall/model_4/depthwise_conv2d_24/depthwise", "op": "FusedDepthwiseConv2dNative", "input": ["StatefulPartitionedCall/model_4/re_lu_162/Relu6", "StatefulPartitionedCall/model_4/depthwise_conv2d_24/depthwise_weights"], "attr": {"padding": {"s": "U0FNRQ=="}, "data_format": {"s": "TkhXQw=="}, "strides": {"list": {"i": ["1", "1", "1", "1"]}}, "num_args": {"i": "0"}, "fused_ops": {"list": {"s": ["Tm9PcA==", "UmVsdQ=="]}}, "T": {"type": "DT_FLOAT"}, "explicit_paddings": {"list": {}}, "dilations": {"list": {"i": ["1", "1", "1", "1"]}}}}, {"name": "StatefulPartitionedCall/model_4/batch_normalization_60/FusedBatchNormV3", "op": "_FusedConv2D", "input": ["StatefulPartitionedCall/model_4/re_lu_162/Relu6", "StatefulPartitionedCall/model_4/conv2d_36/Conv2D_weights", "StatefulPartitionedCall/model_4/conv2d_36/Conv2D_bn_offset"], "device": "/device:CPU:0", "attr": {"num_host_args": {"i": "0"}, "data_format": {"s": "TkhXQw=="}, "filter_format": {"s": "SFdJTw=="}, "strides": {"list": {"i": ["1", "1", "1", "1"]}}, "num_args": {"i": "1"}, "fused_ops": {"list": {"s": ["Qmlhc0FkZA=="]}}, "TArgs": {"list": {"type": ["DT_FLOAT"]}}, "padding": {"s": "U0FNRQ=="}, "use_cudnn_on_gpu": {"b": true}, "leakyrelu_alpha": {"f": 0.2}, "epsilon": {"f": 0.0}, "T": {"type": "DT_FLOAT"}, "explicit_paddings": {"list": {}}, "dilations": {"list": {"i": ["1", "1", "1", "1"]}}}}, {"name": "StatefulPartitionedCall/model_4/activation_33/Relu", "op": "_FusedConv2D", "input": ["StatefulPartitionedCall/model_4/depthwise_conv2d_24/depthwise", "StatefulPartitionedCall/model_4/conv2d_34/Conv2D_weights", "StatefulPartitionedCall/model_4/conv2d_34/Conv2D_bn_offset"], "device": "/device:CPU:0", "attr": {"num_host_args": {"i": "0"}, "data_format": {"s": "TkhXQw=="}, "filter_format": {"s": "SFdJTw=="}, "strides": {"list": {"i": ["1", "1", "1", "1"]}}, "num_args": {"i": "1"}, "fused_ops": {"list": {"s": ["Qmlhc0FkZA==", "UmVsdQ=="]}}, "TArgs": {"list": {"type": ["DT_FLOAT"]}}, "padding": {"s": "U0FNRQ=="}, "use_cudnn_on_gpu": {"b": true}, "leakyrelu_alpha": {"f": 0.2}, "epsilon": {"f": 0.0}, "T": {"type": "DT_FLOAT"}, "explicit_paddings": {"list": {}}, "dilations": {"list": {"i": ["1", "1", "1", "1"]}}}}, {"name": "StatefulPartitionedCall/model_4/depthwise_conv2d_25/depthwise", "op": "FusedDepthwiseConv2dNative", "input": ["StatefulPartitionedCall/model_4/activation_33/Relu", "StatefulPartitionedCall/model_4/depthwise_conv2d_25/depthwise_weights"], "attr": {"padding": {"s": "U0FNRQ=="}, "data_format": {"s": "TkhXQw=="}, "strides": {"list": {"i": ["1", "1", "1", "1"]}}, "num_args": {"i": "0"}, "fused_ops": {"list": {"s": ["Tm9PcA==", "UmVsdQ=="]}}, "T": {"type": "DT_FLOAT"}, "explicit_paddings": {"list": {}}, "dilations": {"list": {"i": ["1", "1", "1", "1"]}}}}, {"name": "StatefulPartitionedCall/model_4/batch_normalization_59/FusedBatchNormV3", "op": "_FusedConv2D", "input": ["StatefulPartitionedCall/model_4/depthwise_conv2d_25/depthwise", "StatefulPartitionedCall/model_4/conv2d_35/Conv2D_weights", "StatefulPartitionedCall/model_4/conv2d_35/Conv2D_bn_offset"], "device": "/device:CPU:0", "attr": {"num_host_args": {"i": "0"}, "data_format": {"s": "TkhXQw=="}, "filter_format": {"s": "SFdJTw=="}, "strides": {"list": {"i": ["1", "1", "1", "1"]}}, "num_args": {"i": "1"}, "fused_ops": {"list": {"s": ["Qmlhc0FkZA=="]}}, "TArgs": {"list": {"type": ["DT_FLOAT"]}}, "padding": {"s": "U0FNRQ=="}, "use_cudnn_on_gpu": {"b": true}, "leakyrelu_alpha": {"f": 0.2}, "epsilon": {"f": 0.0}, "T": {"type": "DT_FLOAT"}, "explicit_paddings": {"list": {}}, "dilations": {"list": {"i": ["1", "1", "1", "1"]}}}}, {"name": "StatefulPartitionedCall/model_4/add_14/add", "op": "AddV2", "input": ["StatefulPartitionedCall/model_4/batch_normalization_59/FusedBatchNormV3", "StatefulPartitionedCall/model_4/batch_normalization_60/FusedBatchNormV3"], "attr": {"T": {"type": "DT_FLOAT"}}}, {"name": "StatefulPartitionedCall/model_4/activation_35/Relu", "op": "Relu", "input": ["StatefulPartitionedCall/model_4/add_14/add"], "attr": {"T": {"type": "DT_FLOAT"}}}, {"name": "StatefulPartitionedCall/model_4/up_sampling2d_8/resize/ResizeBilinear", "op": "ResizeBilinear", "input": ["StatefulPartitionedCall/model_4/activation_35/Relu", "StatefulPartitionedCall/model_4/up_sampling2d_8/mul"], "attr": {"T": {"type": "DT_FLOAT"}, "align_corners": {"b": false}, "half_pixel_centers": {"b": true}}}, {"name": "StatefulPartitionedCall/model_4/add_15/add", "op": "AddV2", "input": ["StatefulPartitionedCall/model_4/up_sampling2d_8/resize/ResizeBilinear", "StatefulPartitionedCall/model_4/expanded_conv_3/depthwise/depthwise"], "attr": {"T": {"type": "DT_FLOAT"}}}, {"name": "StatefulPartitionedCall/model_4/depthwise_conv2d_26/depthwise", "op": "FusedDepthwiseConv2dNative", "input": ["StatefulPartitionedCall/model_4/add_15/add", "StatefulPartitionedCall/model_4/depthwise_conv2d_26/depthwise_weights"], "attr": {"padding": {"s": "U0FNRQ=="}, "data_format": {"s": "TkhXQw=="}, "strides": {"list": {"i": ["1", "1", "1", "1"]}}, "num_args": {"i": "0"}, "fused_ops": {"list": {"s": ["Tm9PcA==", "UmVsdQ=="]}}, "T": {"type": "DT_FLOAT"}, "explicit_paddings": {"list": {}}, "dilations": {"list": {"i": ["1", "1", "1", "1"]}}}}, {"name": "StatefulPartitionedCall/model_4/batch_normalization_65/FusedBatchNormV3", "op": "_FusedConv2D", "input": ["StatefulPartitionedCall/model_4/add_15/add", "StatefulPartitionedCall/model_4/conv2d_39/Conv2D_weights", "StatefulPartitionedCall/model_4/conv2d_39/Conv2D_bn_offset"], "device": "/device:CPU:0", "attr": {"num_host_args": {"i": "0"}, "data_format": {"s": "TkhXQw=="}, "filter_format": {"s": "SFdJTw=="}, "fused_ops": {"list": {"s": ["Qmlhc0FkZA=="]}}, "num_args": {"i": "1"}, "strides": {"list": {"i": ["1", "1", "1", "1"]}}, "TArgs": {"list": {"type": ["DT_FLOAT"]}}, "padding": {"s": "U0FNRQ=="}, "use_cudnn_on_gpu": {"b": true}, "leakyrelu_alpha": {"f": 0.2}, "epsilon": {"f": 0.0}, "T": {"type": "DT_FLOAT"}, "explicit_paddings": {"list": {}}, "dilations": {"list": {"i": ["1", "1", "1", "1"]}}}}, {"name": "StatefulPartitionedCall/model_4/activation_37/Relu", "op": "_FusedConv2D", "input": ["StatefulPartitionedCall/model_4/depthwise_conv2d_26/depthwise", "StatefulPartitionedCall/model_4/conv2d_37/Conv2D_weights", "StatefulPartitionedCall/model_4/conv2d_37/Conv2D_bn_offset"], "device": "/device:CPU:0", "attr": {"num_host_args": {"i": "0"}, "data_format": {"s": "TkhXQw=="}, "filter_format": {"s": "SFdJTw=="}, "strides": {"list": {"i": ["1", "1", "1", "1"]}}, "num_args": {"i": "1"}, "fused_ops": {"list": {"s": ["Qmlhc0FkZA==", "UmVsdQ=="]}}, "TArgs": {"list": {"type": ["DT_FLOAT"]}}, "padding": {"s": "U0FNRQ=="}, "use_cudnn_on_gpu": {"b": true}, "leakyrelu_alpha": {"f": 0.2}, "epsilon": {"f": 0.0}, "T": {"type": "DT_FLOAT"}, "explicit_paddings": {"list": {}}, "dilations": {"list": {"i": ["1", "1", "1", "1"]}}}}, {"name": "StatefulPartitionedCall/model_4/depthwise_conv2d_27/depthwise", "op": "FusedDepthwiseConv2dNative", "input": ["StatefulPartitionedCall/model_4/activation_37/Relu", "StatefulPartitionedCall/model_4/depthwise_conv2d_27/depthwise_weights"], "attr": {"padding": {"s": "U0FNRQ=="}, "data_format": {"s": "TkhXQw=="}, "strides": {"list": {"i": ["1", "1", "1", "1"]}}, "num_args": {"i": "0"}, "fused_ops": {"list": {"s": ["Tm9PcA==", "UmVsdQ=="]}}, "T": {"type": "DT_FLOAT"}, "explicit_paddings": {"list": {}}, "dilations": {"list": {"i": ["1", "1", "1", "1"]}}}}, {"name": "StatefulPartitionedCall/model_4/batch_normalization_64/FusedBatchNormV3", "op": "_FusedConv2D", "input": ["StatefulPartitionedCall/model_4/depthwise_conv2d_27/depthwise", "StatefulPartitionedCall/model_4/conv2d_38/Conv2D_weights", "StatefulPartitionedCall/model_4/conv2d_38/Conv2D_bn_offset"], "device": "/device:CPU:0", "attr": {"num_host_args": {"i": "0"}, "data_format": {"s": "TkhXQw=="}, "filter_format": {"s": "SFdJTw=="}, "strides": {"list": {"i": ["1", "1", "1", "1"]}}, "num_args": {"i": "1"}, "fused_ops": {"list": {"s": ["Qmlhc0FkZA=="]}}, "TArgs": {"list": {"type": ["DT_FLOAT"]}}, "padding": {"s": "U0FNRQ=="}, "use_cudnn_on_gpu": {"b": true}, "leakyrelu_alpha": {"f": 0.2}, "epsilon": {"f": 0.0}, "T": {"type": "DT_FLOAT"}, "explicit_paddings": {"list": {}}, "dilations": {"list": {"i": ["1", "1", "1", "1"]}}}}, {"name": "StatefulPartitionedCall/model_4/add_16/add", "op": "AddV2", "input": ["StatefulPartitionedCall/model_4/batch_normalization_64/FusedBatchNormV3", "StatefulPartitionedCall/model_4/batch_normalization_65/FusedBatchNormV3"], "attr": {"T": {"type": "DT_FLOAT"}}}, {"name": "StatefulPartitionedCall/model_4/activation_39/Relu", "op": "Relu", "input": ["StatefulPartitionedCall/model_4/add_16/add"], "attr": {"T": {"type": "DT_FLOAT"}}}, {"name": "StatefulPartitionedCall/model_4/up_sampling2d_9/resize/ResizeBilinear", "op": "ResizeBilinear", "input": ["StatefulPartitionedCall/model_4/activation_39/Relu", "StatefulPartitionedCall/model_4/up_sampling2d_9/mul"], "attr": {"T": {"type": "DT_FLOAT"}, "align_corners": {"b": false}, "half_pixel_centers": {"b": true}}}, {"name": "StatefulPartitionedCall/model_4/add_17/add", "op": "AddV2", "input": ["StatefulPartitionedCall/model_4/up_sampling2d_9/resize/ResizeBilinear", "StatefulPartitionedCall/model_4/re_lu_139/Relu"], "attr": {"T": {"type": "DT_FLOAT"}}}, {"name": "StatefulPartitionedCall/model_4/depthwise_conv2d_28/depthwise", "op": "FusedDepthwiseConv2dNative", "input": ["StatefulPartitionedCall/model_4/add_17/add", "StatefulPartitionedCall/model_4/depthwise_conv2d_28/depthwise_weights"], "attr": {"padding": {"s": "U0FNRQ=="}, "data_format": {"s": "TkhXQw=="}, "strides": {"list": {"i": ["1", "1", "1", "1"]}}, "num_args": {"i": "0"}, "fused_ops": {"list": {"s": ["Tm9PcA==", "UmVsdQ=="]}}, "T": {"type": "DT_FLOAT"}, "explicit_paddings": {"list": {}}, "dilations": {"list": {"i": ["1", "1", "1", "1"]}}}}, {"name": "StatefulPartitionedCall/model_4/batch_normalization_70/FusedBatchNormV3", "op": "_FusedConv2D", "input": ["StatefulPartitionedCall/model_4/add_17/add", "StatefulPartitionedCall/model_4/conv2d_42/Conv2D_weights", "StatefulPartitionedCall/model_4/conv2d_42/Conv2D_bn_offset"], "device": "/device:CPU:0", "attr": {"num_host_args": {"i": "0"}, "data_format": {"s": "TkhXQw=="}, "filter_format": {"s": "SFdJTw=="}, "strides": {"list": {"i": ["1", "1", "1", "1"]}}, "num_args": {"i": "1"}, "fused_ops": {"list": {"s": ["Qmlhc0FkZA=="]}}, "TArgs": {"list": {"type": ["DT_FLOAT"]}}, "padding": {"s": "U0FNRQ=="}, "use_cudnn_on_gpu": {"b": true}, "leakyrelu_alpha": {"f": 0.2}, "epsilon": {"f": 0.0}, "T": {"type": "DT_FLOAT"}, "explicit_paddings": {"list": {}}, "dilations": {"list": {"i": ["1", "1", "1", "1"]}}}}, {"name": "StatefulPartitionedCall/model_4/activation_41/Relu", "op": "_FusedConv2D", "input": ["StatefulPartitionedCall/model_4/depthwise_conv2d_28/depthwise", "StatefulPartitionedCall/model_4/conv2d_40/Conv2D_weights", "StatefulPartitionedCall/model_4/conv2d_40/Conv2D_bn_offset"], "device": "/device:CPU:0", "attr": {"num_host_args": {"i": "0"}, "data_format": {"s": "TkhXQw=="}, "filter_format": {"s": "SFdJTw=="}, "strides": {"list": {"i": ["1", "1", "1", "1"]}}, "num_args": {"i": "1"}, "fused_ops": {"list": {"s": ["Qmlhc0FkZA==", "UmVsdQ=="]}}, "TArgs": {"list": {"type": ["DT_FLOAT"]}}, "padding": {"s": "U0FNRQ=="}, "use_cudnn_on_gpu": {"b": true}, "leakyrelu_alpha": {"f": 0.2}, "epsilon": {"f": 0.0}, "T": {"type": "DT_FLOAT"}, "explicit_paddings": {"list": {}}, "dilations": {"list": {"i": ["1", "1", "1", "1"]}}}}, {"name": "StatefulPartitionedCall/model_4/depthwise_conv2d_29/depthwise", "op": "FusedDepthwiseConv2dNative", "input": ["StatefulPartitionedCall/model_4/activation_41/Relu", "StatefulPartitionedCall/model_4/depthwise_conv2d_29/depthwise_weights"], "attr": {"padding": {"s": "U0FNRQ=="}, "data_format": {"s": "TkhXQw=="}, "strides": {"list": {"i": ["1", "1", "1", "1"]}}, "num_args": {"i": "0"}, "fused_ops": {"list": {"s": ["Tm9PcA==", "UmVsdQ=="]}}, "T": {"type": "DT_FLOAT"}, "explicit_paddings": {"list": {}}, "dilations": {"list": {"i": ["1", "1", "1", "1"]}}}}, {"name": "StatefulPartitionedCall/model_4/batch_normalization_69/FusedBatchNormV3", "op": "_FusedConv2D", "input": ["StatefulPartitionedCall/model_4/depthwise_conv2d_29/depthwise", "StatefulPartitionedCall/model_4/conv2d_41/Conv2D_weights", "StatefulPartitionedCall/model_4/conv2d_41/Conv2D_bn_offset"], "device": "/device:CPU:0", "attr": {"num_host_args": {"i": "0"}, "data_format": {"s": "TkhXQw=="}, "filter_format": {"s": "SFdJTw=="}, "strides": {"list": {"i": ["1", "1", "1", "1"]}}, "num_args": {"i": "1"}, "fused_ops": {"list": {"s": ["Qmlhc0FkZA=="]}}, "TArgs": {"list": {"type": ["DT_FLOAT"]}}, "padding": {"s": "U0FNRQ=="}, "use_cudnn_on_gpu": {"b": true}, "leakyrelu_alpha": {"f": 0.2}, "epsilon": {"f": 0.0}, "T": {"type": "DT_FLOAT"}, "explicit_paddings": {"list": {}}, "dilations": {"list": {"i": ["1", "1", "1", "1"]}}}}, {"name": "StatefulPartitionedCall/model_4/add_18/add", "op": "AddV2", "input": ["StatefulPartitionedCall/model_4/batch_normalization_69/FusedBatchNormV3", "StatefulPartitionedCall/model_4/batch_normalization_70/FusedBatchNormV3"], "attr": {"T": {"type": "DT_FLOAT"}}}, {"name": "StatefulPartitionedCall/model_4/activation_43/Relu", "op": "Relu", "input": ["StatefulPartitionedCall/model_4/add_18/add"], "attr": {"T": {"type": "DT_FLOAT"}}}, {"name": "StatefulPartitionedCall/model_4/up_sampling2d_10/resize/ResizeBilinear", "op": "ResizeBilinear", "input": ["StatefulPartitionedCall/model_4/activation_43/Relu", "StatefulPartitionedCall/model_4/up_sampling2d_10/mul"], "attr": {"T": {"type": "DT_FLOAT"}, "align_corners": {"b": false}, "half_pixel_centers": {"b": true}}}, {"name": "StatefulPartitionedCall/model_4/add_19/add", "op": "AddV2", "input": ["StatefulPartitionedCall/model_4/up_sampling2d_10/resize/ResizeBilinear", "StatefulPartitionedCall/model_4/re_lu_135/Relu"], "attr": {"T": {"type": "DT_FLOAT"}}}, {"name": "StatefulPartitionedCall/model_4/depthwise_conv2d_30/depthwise", "op": "FusedDepthwiseConv2dNative", "input": ["StatefulPartitionedCall/model_4/add_19/add", "StatefulPartitionedCall/model_4/depthwise_conv2d_30/depthwise_weights"], "attr": {"padding": {"s": "U0FNRQ=="}, "data_format": {"s": "TkhXQw=="}, "strides": {"list": {"i": ["1", "1", "1", "1"]}}, "num_args": {"i": "0"}, "fused_ops": {"list": {"s": ["Tm9PcA==", "UmVsdQ=="]}}, "T": {"type": "DT_FLOAT"}, "explicit_paddings": {"list": {}}, "dilations": {"list": {"i": ["1", "1", "1", "1"]}}}}, {"name": "StatefulPartitionedCall/model_4/batch_normalization_75/FusedBatchNormV3", "op": "_FusedConv2D", "input": ["StatefulPartitionedCall/model_4/add_19/add", "StatefulPartitionedCall/model_4/conv2d_45/Conv2D_weights", "StatefulPartitionedCall/model_4/conv2d_45/Conv2D_bn_offset"], "device": "/device:CPU:0", "attr": {"num_host_args": {"i": "0"}, "data_format": {"s": "TkhXQw=="}, "filter_format": {"s": "SFdJTw=="}, "fused_ops": {"list": {"s": ["Qmlhc0FkZA=="]}}, "num_args": {"i": "1"}, "strides": {"list": {"i": ["1", "1", "1", "1"]}}, "TArgs": {"list": {"type": ["DT_FLOAT"]}}, "padding": {"s": "U0FNRQ=="}, "use_cudnn_on_gpu": {"b": true}, "leakyrelu_alpha": {"f": 0.2}, "epsilon": {"f": 0.0}, "T": {"type": "DT_FLOAT"}, "explicit_paddings": {"list": {}}, "dilations": {"list": {"i": ["1", "1", "1", "1"]}}}}, {"name": "StatefulPartitionedCall/model_4/activation_45/Relu", "op": "_FusedConv2D", "input": ["StatefulPartitionedCall/model_4/depthwise_conv2d_30/depthwise", "StatefulPartitionedCall/model_4/conv2d_43/Conv2D_weights", "StatefulPartitionedCall/model_4/conv2d_43/Conv2D_bn_offset"], "device": "/device:CPU:0", "attr": {"num_host_args": {"i": "0"}, "data_format": {"s": "TkhXQw=="}, "filter_format": {"s": "SFdJTw=="}, "fused_ops": {"list": {"s": ["Qmlhc0FkZA==", "UmVsdQ=="]}}, "num_args": {"i": "1"}, "strides": {"list": {"i": ["1", "1", "1", "1"]}}, "TArgs": {"list": {"type": ["DT_FLOAT"]}}, "padding": {"s": "U0FNRQ=="}, "use_cudnn_on_gpu": {"b": true}, "leakyrelu_alpha": {"f": 0.2}, "epsilon": {"f": 0.0}, "T": {"type": "DT_FLOAT"}, "explicit_paddings": {"list": {}}, "dilations": {"list": {"i": ["1", "1", "1", "1"]}}}}, {"name": "StatefulPartitionedCall/model_4/depthwise_conv2d_31/depthwise", "op": "FusedDepthwiseConv2dNative", "input": ["StatefulPartitionedCall/model_4/activation_45/Relu", "StatefulPartitionedCall/model_4/depthwise_conv2d_31/depthwise_weights"], "attr": {"padding": {"s": "U0FNRQ=="}, "data_format": {"s": "TkhXQw=="}, "strides": {"list": {"i": ["1", "1", "1", "1"]}}, "num_args": {"i": "0"}, "fused_ops": {"list": {"s": ["Tm9PcA==", "UmVsdQ=="]}}, "T": {"type": "DT_FLOAT"}, "explicit_paddings": {"list": {}}, "dilations": {"list": {"i": ["1", "1", "1", "1"]}}}}, {"name": "StatefulPartitionedCall/model_4/batch_normalization_74/FusedBatchNormV3", "op": "_FusedConv2D", "input": ["StatefulPartitionedCall/model_4/depthwise_conv2d_31/depthwise", "StatefulPartitionedCall/model_4/conv2d_44/Conv2D_weights", "StatefulPartitionedCall/model_4/conv2d_44/Conv2D_bn_offset"], "device": "/device:CPU:0", "attr": {"num_host_args": {"i": "0"}, "data_format": {"s": "TkhXQw=="}, "filter_format": {"s": "SFdJTw=="}, "fused_ops": {"list": {"s": ["Qmlhc0FkZA=="]}}, "num_args": {"i": "1"}, "strides": {"list": {"i": ["1", "1", "1", "1"]}}, "TArgs": {"list": {"type": ["DT_FLOAT"]}}, "padding": {"s": "U0FNRQ=="}, "use_cudnn_on_gpu": {"b": true}, "leakyrelu_alpha": {"f": 0.2}, "epsilon": {"f": 0.0}, "T": {"type": "DT_FLOAT"}, "explicit_paddings": {"list": {}}, "dilations": {"list": {"i": ["1", "1", "1", "1"]}}}}, {"name": "StatefulPartitionedCall/model_4/add_20/add", "op": "AddV2", "input": ["StatefulPartitionedCall/model_4/batch_normalization_74/FusedBatchNormV3", "StatefulPartitionedCall/model_4/batch_normalization_75/FusedBatchNormV3"], "attr": {"T": {"type": "DT_FLOAT"}}}, {"name": "StatefulPartitionedCall/model_4/activation_47/Relu", "op": "Relu", "input": ["StatefulPartitionedCall/model_4/add_20/add"], "attr": {"T": {"type": "DT_FLOAT"}}}, {"name": "StatefulPartitionedCall/model_4/up_sampling2d_11/resize/ResizeBilinear", "op": "ResizeBilinear", "input": ["StatefulPartitionedCall/model_4/activation_47/Relu", "StatefulPartitionedCall/model_4/up_sampling2d_11/mul"], "attr": {"T": {"type": "DT_FLOAT"}, "align_corners": {"b": false}, "half_pixel_centers": {"b": true}}}, {"name": "StatefulPartitionedCall/model_4/conv2d_46/Conv2D", "op": "Conv2D", "input": ["StatefulPartitionedCall/model_4/up_sampling2d_11/resize/ResizeBilinear", "StatefulPartitionedCall/model_4/conv2d_46/Conv2D/ReadVariableOp"], "device": "/device:CPU:0", "attr": {"padding": {"s": "U0FNRQ=="}, "data_format": {"s": "TkhXQw=="}, "strides": {"list": {"i": ["1", "1", "1", "1"]}}, "use_cudnn_on_gpu": {"b": true}, "T": {"type": "DT_FLOAT"}, "explicit_paddings": {"list": {}}, "dilations": {"list": {"i": ["1", "1", "1", "1"]}}}}, {"name": "StatefulPartitionedCall/model_4/output/Conv2D", "op": "Conv2D", "input": ["StatefulPartitionedCall/model_4/conv2d_46/Conv2D", "StatefulPartitionedCall/model_4/output/Conv2D/ReadVariableOp"], "device": "/device:CPU:0", "attr": {"padding": {"s": "VkFMSUQ="}, "data_format": {"s": "TkhXQw=="}, "use_cudnn_on_gpu": {"b": true}, "strides": {"list": {"i": ["1", "1", "1", "1"]}}, "T": {"type": "DT_FLOAT"}, "explicit_paddings": {"list": {}}, "dilations": {"list": {"i": ["1", "1", "1", "1"]}}}}, {"name": "StatefulPartitionedCall/model_4/output/Sigmoid", "op": "Sigmoid", "input": ["StatefulPartitionedCall/model_4/output/Conv2D"], "attr": {"T": {"type": "DT_FLOAT"}}}, {"name": "Identity", "op": "Identity", "input": ["StatefulPartitionedCall/model_4/output/Sigmoid"], "attr": {"T": {"type": "DT_FLOAT"}}}], "library": {}, "versions": {"producer": 1575}}, "weightsManifest": [{"paths": ["group1-shard1of1.bin"], "weights": [{"name": "StatefulPartitionedCall/model_4/tf.math.multiply_101/Mul/y", "shape": [], "dtype": "float32"}, {"name": "StatefulPartitionedCall/model_4/expanded_conv_11/squeeze_excite/AvgPool/Mean/reduction_indices", "shape": [2], "dtype": "int32"}, {"name": "StatefulPartitionedCall/model_4/expanded_conv_11/squeeze_excite/Conv/Conv2D/ReadVariableOp", "shape": [1, 1, 672, 168], "dtype": "float32"}, {"name": "StatefulPartitionedCall/model_4/expanded_conv_11/squeeze_excite/Conv/BiasAdd/ReadVariableOp", "shape": [168], "dtype": "float32"}, {"name": "StatefulPartitionedCall/model_4/expanded_conv_11/squeeze_excite/Conv_1/Conv2D/ReadVariableOp", "shape": [1, 1, 168, 672], "dtype": "float32"}, {"name": "StatefulPartitionedCall/model_4/expanded_conv_11/squeeze_excite/Conv_1/BiasAdd/ReadVariableOp", "shape": [672], "dtype": "float32"}, {"name": "StatefulPartitionedCall/model_4/tf.__operators__.add_101/y", "shape": [], "dtype": "float32"}, {"name": "StatefulPartitionedCall/model_4/tf.math.multiply_100/Mul/y", "shape": [], "dtype": "float32"}, {"name": "StatefulPartitionedCall/model_4/tf.math.multiply_99/Mul/y", "shape": [], "dtype": "float32"}, {"name": "StatefulPartitionedCall/model_4/tf.math.multiply_98/Mul/y", "shape": [], "dtype": "float32"}, {"name": "StatefulPartitionedCall/model_4/expanded_conv_10/squeeze_excite/AvgPool/Mean/reduction_indices", "shape": [2], "dtype": "int32"}, {"name": "StatefulPartitionedCall/model_4/expanded_conv_10/squeeze_excite/Conv/Conv2D/ReadVariableOp", "shape": [1, 1, 480, 120], "dtype": "float32"}, {"name": "StatefulPartitionedCall/model_4/expanded_conv_10/squeeze_excite/Conv/BiasAdd/ReadVariableOp", "shape": [120], "dtype": "float32"}, {"name": "StatefulPartitionedCall/model_4/expanded_conv_10/squeeze_excite/Conv_1/Conv2D/ReadVariableOp", "shape": [1, 1, 120, 480], "dtype": "float32"}, {"name": "StatefulPartitionedCall/model_4/expanded_conv_10/squeeze_excite/Conv_1/BiasAdd/ReadVariableOp", "shape": [480], "dtype": "float32"}, {"name": "StatefulPartitionedCall/model_4/tf.__operators__.add_98/y", "shape": [], "dtype": "float32"}, {"name": "StatefulPartitionedCall/model_4/tf.math.multiply_97/Mul/y", "shape": [], "dtype": "float32"}, {"name": "StatefulPartitionedCall/model_4/tf.math.multiply_96/Mul/y", "shape": [], "dtype": "float32"}, {"name": "StatefulPartitionedCall/model_4/tf.math.multiply_95/Mul/y", "shape": [], "dtype": "float32"}, {"name": "StatefulPartitionedCall/model_4/tf.math.multiply_94/Mul/y", "shape": [], "dtype": "float32"}, {"name": "StatefulPartitionedCall/model_4/tf.math.multiply_93/Mul/y", "shape": [], "dtype": "float32"}, {"name": "StatefulPartitionedCall/model_4/tf.math.multiply_92/Mul/y", "shape": [], "dtype": "float32"}, {"name": "StatefulPartitionedCall/model_4/tf.math.multiply_91/Mul/y", "shape": [], "dtype": "float32"}, {"name": "StatefulPartitionedCall/model_4/tf.math.multiply_90/Mul/y", "shape": [], "dtype": "float32"}, {"name": "StatefulPartitionedCall/model_4/tf.math.multiply_89/Mul/y", "shape": [], "dtype": "float32"}, {"name": "StatefulPartitionedCall/model_4/tf.math.multiply_88/Mul/y", "shape": [], "dtype": "float32"}, {"name": "StatefulPartitionedCall/model_4/tf.math.multiply_87/Mul/y", "shape": [], "dtype": "float32"}, {"name": "StatefulPartitionedCall/model_4/expanded_conv_5/squeeze_excite/AvgPool/Mean/reduction_indices", "shape": [2], "dtype": "int32"}, {"name": "StatefulPartitionedCall/model_4/expanded_conv_5/squeeze_excite/Conv/Conv2D/ReadVariableOp", "shape": [1, 1, 120, 32], "dtype": "float32"}, {"name": "StatefulPartitionedCall/model_4/expanded_conv_5/squeeze_excite/Conv/BiasAdd/ReadVariableOp", "shape": [32], "dtype": "float32"}, {"name": "StatefulPartitionedCall/model_4/expanded_conv_5/squeeze_excite/Conv_1/Conv2D/ReadVariableOp", "shape": [1, 1, 32, 120], "dtype": "float32"}, {"name": "StatefulPartitionedCall/model_4/expanded_conv_5/squeeze_excite/Conv_1/BiasAdd/ReadVariableOp", "shape": [120], "dtype": "float32"}, {"name": "StatefulPartitionedCall/model_4/tf.__operators__.add_87/y", "shape": [], "dtype": "float32"}, {"name": "StatefulPartitionedCall/model_4/tf.math.multiply_86/Mul/y", "shape": [], "dtype": "float32"}, {"name": "StatefulPartitionedCall/model_4/expanded_conv_4/squeeze_excite/AvgPool/Mean/reduction_indices", "shape": [2], "dtype": "int32"}, {"name": "StatefulPartitionedCall/model_4/expanded_conv_4/squeeze_excite/Conv/Conv2D/ReadVariableOp", "shape": [1, 1, 120, 32], "dtype": "float32"}, {"name": "StatefulPartitionedCall/model_4/expanded_conv_4/squeeze_excite/Conv/BiasAdd/ReadVariableOp", "shape": [32], "dtype": "float32"}, {"name": "StatefulPartitionedCall/model_4/expanded_conv_4/squeeze_excite/Conv_1/Conv2D/ReadVariableOp", "shape": [1, 1, 32, 120], "dtype": "float32"}, {"name": "StatefulPartitionedCall/model_4/expanded_conv_4/squeeze_excite/Conv_1/BiasAdd/ReadVariableOp", "shape": [120], "dtype": "float32"}, {"name": "StatefulPartitionedCall/model_4/tf.__operators__.add_86/y", "shape": [], "dtype": "float32"}, {"name": "StatefulPartitionedCall/model_4/tf.math.multiply_85/Mul/y", "shape": [], "dtype": "float32"}, {"name": "StatefulPartitionedCall/model_4/expanded_conv_3/squeeze_excite/AvgPool/Mean/reduction_indices", "shape": [2], "dtype": "int32"}, {"name": "StatefulPartitionedCall/model_4/expanded_conv_3/squeeze_excite/Conv/Conv2D/ReadVariableOp", "shape": [1, 1, 72, 24], "dtype": "float32"}, {"name": "StatefulPartitionedCall/model_4/expanded_conv_3/squeeze_excite/Conv/BiasAdd/ReadVariableOp", "shape": [24], "dtype": "float32"}, {"name": "StatefulPartitionedCall/model_4/expanded_conv_3/squeeze_excite/Conv_1/Conv2D/ReadVariableOp", "shape": [1, 1, 24, 72], "dtype": "float32"}, {"name": "StatefulPartitionedCall/model_4/expanded_conv_3/squeeze_excite/Conv_1/BiasAdd/ReadVariableOp", "shape": [72], "dtype": "float32"}, {"name": "StatefulPartitionedCall/model_4/tf.__operators__.add_85/y", "shape": [], "dtype": "float32"}, {"name": "StatefulPartitionedCall/model_4/tf.__operators__.add_88/y", "shape": [], "dtype": "float32"}, {"name": "StatefulPartitionedCall/model_4/expanded_conv_6/depthwise/pad/Pad/paddings", "shape": [4, 2], "dtype": "int32"}, {"name": "StatefulPartitionedCall/model_4/tf.__operators__.add_89/y", "shape": [], "dtype": "float32"}, {"name": "StatefulPartitionedCall/model_4/tf.__operators__.add_90/y", "shape": [], "dtype": "float32"}, {"name": "StatefulPartitionedCall/model_4/tf.__operators__.add_91/y", "shape": [], "dtype": "float32"}, {"name": "StatefulPartitionedCall/model_4/tf.__operators__.add_92/y", "shape": [], "dtype": "float32"}, {"name": "StatefulPartitionedCall/model_4/tf.__operators__.add_93/y", "shape": [], "dtype": "float32"}, {"name": "StatefulPartitionedCall/model_4/tf.__operators__.add_94/y", "shape": [], "dtype": "float32"}, {"name": "StatefulPartitionedCall/model_4/tf.__operators__.add_95/y", "shape": [], "dtype": "float32"}, {"name": "StatefulPartitionedCall/model_4/tf.__operators__.add_96/y", "shape": [], "dtype": "float32"}, {"name": "StatefulPartitionedCall/model_4/tf.__operators__.add_97/y", "shape": [], "dtype": "float32"}, {"name": "StatefulPartitionedCall/model_4/tf.__operators__.add_99/y", "shape": [], "dtype": "float32"}, {"name": "StatefulPartitionedCall/model_4/tf.__operators__.add_100/y", "shape": [], "dtype": "float32"}, {"name": "StatefulPartitionedCall/model_4/tf.__operators__.add_102/y", "shape": [], "dtype": "float32"}, {"name": "StatefulPartitionedCall/model_4/up_sampling2d_8/mul", "shape": [2], "dtype": "int32"}, {"name": "StatefulPartitionedCall/model_4/expanded_conv_3/depthwise/pad/Pad/paddings", "shape": [4, 2], "dtype": "int32"}, {"name": "StatefulPartitionedCall/model_4/up_sampling2d_9/mul", "shape": [2], "dtype": "int32"}, {"name": "StatefulPartitionedCall/model_4/expanded_conv_1/depthwise/pad/Pad/paddings", "shape": [4, 2], "dtype": "int32"}, {"name": "StatefulPartitionedCall/model_4/up_sampling2d_10/mul", "shape": [2], "dtype": "int32"}, {"name": "StatefulPartitionedCall/model_4/tf.math.multiply_84/Mul/y", "shape": [], "dtype": "float32"}, {"name": "StatefulPartitionedCall/model_4/tf.__operators__.add_84/y", "shape": [], "dtype": "float32"}, {"name": "StatefulPartitionedCall/model_4/up_sampling2d_11/mul", "shape": [2], "dtype": "int32"}, {"name": "StatefulPartitionedCall/model_4/conv2d_46/Conv2D/ReadVariableOp", "shape": [1, 1, 16, 1], "dtype": "float32"}, {"name": "StatefulPartitionedCall/model_4/output/Conv2D/ReadVariableOp", "shape": [1, 1, 1, 1], "dtype": "float32"}, {"name": "StatefulPartitionedCall/model_4/Conv/Conv2D_weights", "shape": [3, 3, 3, 16], "dtype": "float32"}, {"name": "StatefulPartitionedCall/model_4/Conv/Conv2D_bn_offset", "shape": [16], "dtype": "float32"}, {"name": "StatefulPartitionedCall/model_4/expanded_conv/depthwise/depthwise_weights", "shape": [3, 3, 16, 1], "dtype": "float32"}, {"name": "StatefulPartitionedCall/model_4/expanded_conv/depthwise/depthwise_bn_offset", "shape": [16], "dtype": "float32"}, {"name": "StatefulPartitionedCall/model_4/expanded_conv/project/Conv2D_weights", "shape": [1, 1, 16, 16], "dtype": "float32"}, {"name": "StatefulPartitionedCall/model_4/expanded_conv/project/Conv2D_bn_offset", "shape": [16], "dtype": "float32"}, {"name": "StatefulPartitionedCall/model_4/expanded_conv_1/expand/Conv2D_weights", "shape": [1, 1, 16, 64], "dtype": "float32"}, {"name": "StatefulPartitionedCall/model_4/expanded_conv_1/expand/Conv2D_bn_offset", "shape": [64], "dtype": "float32"}, {"name": "StatefulPartitionedCall/model_4/expanded_conv_1/depthwise/depthwise_weights", "shape": [3, 3, 64, 1], "dtype": "float32"}, {"name": "StatefulPartitionedCall/model_4/expanded_conv_1/depthwise/depthwise_bn_offset", "shape": [64], "dtype": "float32"}, {"name": "StatefulPartitionedCall/model_4/expanded_conv_1/project/Conv2D_weights", "shape": [1, 1, 64, 24], "dtype": "float32"}, {"name": "StatefulPartitionedCall/model_4/depthwise_conv2d_28/depthwise_weights", "shape": [3, 3, 72, 1], "dtype": "float32"}, {"name": "StatefulPartitionedCall/model_4/expanded_conv_1/project/Conv2D_bn_offset", "shape": [24], "dtype": "float32"}, {"name": "StatefulPartitionedCall/model_4/expanded_conv_2/expand/Conv2D_weights", "shape": [1, 1, 24, 72], "dtype": "float32"}, {"name": "StatefulPartitionedCall/model_4/expanded_conv_2/expand/Conv2D_bn_offset", "shape": [72], "dtype": "float32"}, {"name": "StatefulPartitionedCall/model_4/expanded_conv_2/depthwise/depthwise_weights", "shape": [3, 3, 72, 1], "dtype": "float32"}, {"name": "StatefulPartitionedCall/model_4/expanded_conv_2/depthwise/depthwise_bn_offset", "shape": [72], "dtype": "float32"}, {"name": "StatefulPartitionedCall/model_4/expanded_conv_2/project/Conv2D_weights", "shape": [1, 1, 72, 24], "dtype": "float32"}, {"name": "StatefulPartitionedCall/model_4/expanded_conv_2/project/Conv2D_bn_offset", "shape": [24], "dtype": "float32"}, {"name": "StatefulPartitionedCall/model_4/expanded_conv_3/expand/Conv2D_weights", "shape": [1, 1, 24, 72], "dtype": "float32"}, {"name": "StatefulPartitionedCall/model_4/expanded_conv_3/expand/Conv2D_bn_offset", "shape": [72], "dtype": "float32"}, {"name": "StatefulPartitionedCall/model_4/conv2d_42/Conv2D_weights", "shape": [1, 1, 72, 64], "dtype": "float32"}, {"name": "StatefulPartitionedCall/model_4/expanded_conv_3/depthwise/depthwise_weights", "shape": [5, 5, 72, 1], "dtype": "float32"}, {"name": "StatefulPartitionedCall/model_4/expanded_conv_3/depthwise/depthwise_bn_offset", "shape": [72], "dtype": "float32"}, {"name": "StatefulPartitionedCall/model_4/conv2d_42/Conv2D_bn_offset", "shape": [64], "dtype": "float32"}, {"name": "StatefulPartitionedCall/model_4/expanded_conv_3/project/Conv2D_weights", "shape": [1, 1, 72, 40], "dtype": "float32"}, {"name": "StatefulPartitionedCall/model_4/conv2d_40/Conv2D_weights", "shape": [1, 1, 72, 64], "dtype": "float32"}, {"name": "StatefulPartitionedCall/model_4/expanded_conv_3/project/Conv2D_bn_offset", "shape": [40], "dtype": "float32"}, {"name": "StatefulPartitionedCall/model_4/expanded_conv_4/expand/Conv2D_weights", "shape": [1, 1, 40, 120], "dtype": "float32"}, {"name": "StatefulPartitionedCall/model_4/expanded_conv_4/expand/Conv2D_bn_offset", "shape": [120], "dtype": "float32"}, {"name": "StatefulPartitionedCall/model_4/conv2d_40/Conv2D_bn_offset", "shape": [64], "dtype": "float32"}, {"name": "StatefulPartitionedCall/model_4/expanded_conv_4/depthwise/depthwise_weights", "shape": [5, 5, 120, 1], "dtype": "float32"}, {"name": "StatefulPartitionedCall/model_4/expanded_conv_4/depthwise/depthwise_bn_offset", "shape": [120], "dtype": "float32"}, {"name": "StatefulPartitionedCall/model_4/depthwise_conv2d_29/depthwise_weights", "shape": [3, 3, 64, 1], "dtype": "float32"}, {"name": "StatefulPartitionedCall/model_4/expanded_conv_4/project/Conv2D_weights", "shape": [1, 1, 120, 40], "dtype": "float32"}, {"name": "StatefulPartitionedCall/model_4/expanded_conv_4/project/Conv2D_bn_offset", "shape": [40], "dtype": "float32"}, {"name": "StatefulPartitionedCall/model_4/expanded_conv_5/expand/Conv2D_weights", "shape": [1, 1, 40, 120], "dtype": "float32"}, {"name": "StatefulPartitionedCall/model_4/expanded_conv_5/expand/Conv2D_bn_offset", "shape": [120], "dtype": "float32"}, {"name": "StatefulPartitionedCall/model_4/expanded_conv_5/depthwise/depthwise_weights", "shape": [5, 5, 120, 1], "dtype": "float32"}, {"name": "StatefulPartitionedCall/model_4/expanded_conv_5/depthwise/depthwise_bn_offset", "shape": [120], "dtype": "float32"}, {"name": "StatefulPartitionedCall/model_4/conv2d_41/Conv2D_weights", "shape": [1, 1, 64, 64], "dtype": "float32"}, {"name": "StatefulPartitionedCall/model_4/expanded_conv_5/project/Conv2D_weights", "shape": [1, 1, 120, 40], "dtype": "float32"}, {"name": "StatefulPartitionedCall/model_4/conv2d_41/Conv2D_bn_offset", "shape": [64], "dtype": "float32"}, {"name": "StatefulPartitionedCall/model_4/expanded_conv_5/project/Conv2D_bn_offset", "shape": [40], "dtype": "float32"}, {"name": "StatefulPartitionedCall/model_4/expanded_conv_6/expand/Conv2D_weights", "shape": [1, 1, 40, 240], "dtype": "float32"}, {"name": "StatefulPartitionedCall/model_4/expanded_conv_6/expand/Conv2D_bn_offset", "shape": [240], "dtype": "float32"}, {"name": "StatefulPartitionedCall/model_4/expanded_conv_6/depthwise/depthwise_weights", "shape": [3, 3, 240, 1], "dtype": "float32"}, {"name": "StatefulPartitionedCall/model_4/expanded_conv_6/depthwise/depthwise_bn_offset", "shape": [240], "dtype": "float32"}, {"name": "StatefulPartitionedCall/model_4/expanded_conv_6/project/Conv2D_weights", "shape": [1, 1, 240, 80], "dtype": "float32"}, {"name": "StatefulPartitionedCall/model_4/expanded_conv_6/project/Conv2D_bn_offset", "shape": [80], "dtype": "float32"}, {"name": "StatefulPartitionedCall/model_4/expanded_conv_7/expand/Conv2D_weights", "shape": [1, 1, 80, 200], "dtype": "float32"}, {"name": "StatefulPartitionedCall/model_4/expanded_conv_7/expand/Conv2D_bn_offset", "shape": [200], "dtype": "float32"}, {"name": "StatefulPartitionedCall/model_4/expanded_conv_7/depthwise/depthwise_weights", "shape": [3, 3, 200, 1], "dtype": "float32"}, {"name": "StatefulPartitionedCall/model_4/expanded_conv_7/depthwise/depthwise_bn_offset", "shape": [200], "dtype": "float32"}, {"name": "StatefulPartitionedCall/model_4/expanded_conv_7/project/Conv2D_weights", "shape": [1, 1, 200, 80], "dtype": "float32"}, {"name": "StatefulPartitionedCall/model_4/expanded_conv_7/project/Conv2D_bn_offset", "shape": [80], "dtype": "float32"}, {"name": "StatefulPartitionedCall/model_4/expanded_conv_8/expand/Conv2D_weights", "shape": [1, 1, 80, 184], "dtype": "float32"}, {"name": "StatefulPartitionedCall/model_4/expanded_conv_8/expand/Conv2D_bn_offset", "shape": [184], "dtype": "float32"}, {"name": "StatefulPartitionedCall/model_4/expanded_conv_8/depthwise/depthwise_weights", "shape": [3, 3, 184, 1], "dtype": "float32"}, {"name": "StatefulPartitionedCall/model_4/expanded_conv_8/depthwise/depthwise_bn_offset", "shape": [184], "dtype": "float32"}, {"name": "StatefulPartitionedCall/model_4/expanded_conv_8/project/Conv2D_weights", "shape": [1, 1, 184, 80], "dtype": "float32"}, {"name": "StatefulPartitionedCall/model_4/depthwise_conv2d_30/depthwise_weights", "shape": [3, 3, 64, 1], "dtype": "float32"}, {"name": "StatefulPartitionedCall/model_4/expanded_conv_8/project/Conv2D_bn_offset", "shape": [80], "dtype": "float32"}, {"name": "StatefulPartitionedCall/model_4/expanded_conv_9/expand/Conv2D_weights", "shape": [1, 1, 80, 184], "dtype": "float32"}, {"name": "StatefulPartitionedCall/model_4/expanded_conv_9/expand/Conv2D_bn_offset", "shape": [184], "dtype": "float32"}, {"name": "StatefulPartitionedCall/model_4/expanded_conv_9/depthwise/depthwise_weights", "shape": [3, 3, 184, 1], "dtype": "float32"}, {"name": "StatefulPartitionedCall/model_4/expanded_conv_9/depthwise/depthwise_bn_offset", "shape": [184], "dtype": "float32"}, {"name": "StatefulPartitionedCall/model_4/expanded_conv_9/project/Conv2D_weights", "shape": [1, 1, 184, 80], "dtype": "float32"}, {"name": "StatefulPartitionedCall/model_4/expanded_conv_9/project/Conv2D_bn_offset", "shape": [80], "dtype": "float32"}, {"name": "StatefulPartitionedCall/model_4/expanded_conv_10/expand/Conv2D_weights", "shape": [1, 1, 80, 480], "dtype": "float32"}, {"name": "StatefulPartitionedCall/model_4/expanded_conv_10/expand/Conv2D_bn_offset", "shape": [480], "dtype": "float32"}, {"name": "StatefulPartitionedCall/model_4/expanded_conv_10/depthwise/depthwise_weights", "shape": [3, 3, 480, 1], "dtype": "float32"}, {"name": "StatefulPartitionedCall/model_4/expanded_conv_10/depthwise/depthwise_bn_offset", "shape": [480], "dtype": "float32"}, {"name": "StatefulPartitionedCall/model_4/conv2d_45/Conv2D_weights", "shape": [1, 1, 64, 16], "dtype": "float32"}, {"name": "StatefulPartitionedCall/model_4/expanded_conv_10/project/Conv2D_weights", "shape": [1, 1, 480, 112], "dtype": "float32"}, {"name": "StatefulPartitionedCall/model_4/conv2d_45/Conv2D_bn_offset", "shape": [16], "dtype": "float32"}, {"name": "StatefulPartitionedCall/model_4/expanded_conv_10/project/Conv2D_bn_offset", "shape": [112], "dtype": "float32"}, {"name": "StatefulPartitionedCall/model_4/expanded_conv_11/expand/Conv2D_weights", "shape": [1, 1, 112, 672], "dtype": "float32"}, {"name": "StatefulPartitionedCall/model_4/expanded_conv_11/expand/Conv2D_bn_offset", "shape": [672], "dtype": "float32"}, {"name": "StatefulPartitionedCall/model_4/expanded_conv_11/depthwise/depthwise_weights", "shape": [3, 3, 672, 1], "dtype": "float32"}, {"name": "StatefulPartitionedCall/model_4/expanded_conv_11/depthwise/depthwise_bn_offset", "shape": [672], "dtype": "float32"}, {"name": "StatefulPartitionedCall/model_4/conv2d_43/Conv2D_weights", "shape": [1, 1, 64, 16], "dtype": "float32"}, {"name": "StatefulPartitionedCall/model_4/conv2d_43/Conv2D_bn_offset", "shape": [16], "dtype": "float32"}, {"name": "StatefulPartitionedCall/model_4/expanded_conv_11/project/Conv2D_weights", "shape": [1, 1, 672, 112], "dtype": "float32"}, {"name": "StatefulPartitionedCall/model_4/expanded_conv_11/project/Conv2D_bn_offset", "shape": [112], "dtype": "float32"}, {"name": "StatefulPartitionedCall/model_4/expanded_conv_12/expand/Conv2D_weights", "shape": [1, 1, 112, 672], "dtype": "float32"}, {"name": "StatefulPartitionedCall/model_4/expanded_conv_12/expand/Conv2D_bn_offset", "shape": [672], "dtype": "float32"}, {"name": "StatefulPartitionedCall/model_4/depthwise_conv2d_24/depthwise_weights", "shape": [3, 3, 672, 1], "dtype": "float32"}, {"name": "StatefulPartitionedCall/model_4/conv2d_36/Conv2D_weights", "shape": [1, 1, 672, 72], "dtype": "float32"}, {"name": "StatefulPartitionedCall/model_4/depthwise_conv2d_31/depthwise_weights", "shape": [3, 3, 16, 1], "dtype": "float32"}, {"name": "StatefulPartitionedCall/model_4/conv2d_36/Conv2D_bn_offset", "shape": [72], "dtype": "float32"}, {"name": "StatefulPartitionedCall/model_4/conv2d_34/Conv2D_weights", "shape": [1, 1, 672, 72], "dtype": "float32"}, {"name": "StatefulPartitionedCall/model_4/conv2d_34/Conv2D_bn_offset", "shape": [72], "dtype": "float32"}, {"name": "StatefulPartitionedCall/model_4/depthwise_conv2d_25/depthwise_weights", "shape": [3, 3, 72, 1], "dtype": "float32"}, {"name": "StatefulPartitionedCall/model_4/conv2d_35/Conv2D_weights", "shape": [1, 1, 72, 72], "dtype": "float32"}, {"name": "StatefulPartitionedCall/model_4/conv2d_35/Conv2D_bn_offset", "shape": [72], "dtype": "float32"}, {"name": "StatefulPartitionedCall/model_4/depthwise_conv2d_26/depthwise_weights", "shape": [3, 3, 72, 1], "dtype": "float32"}, {"name": "StatefulPartitionedCall/model_4/conv2d_39/Conv2D_weights", "shape": [1, 1, 72, 72], "dtype": "float32"}, {"name": "StatefulPartitionedCall/model_4/conv2d_39/Conv2D_bn_offset", "shape": [72], "dtype": "float32"}, {"name": "StatefulPartitionedCall/model_4/conv2d_37/Conv2D_weights", "shape": [1, 1, 72, 72], "dtype": "float32"}, {"name": "StatefulPartitionedCall/model_4/conv2d_44/Conv2D_weights", "shape": [1, 1, 16, 16], "dtype": "float32"}, {"name": "StatefulPartitionedCall/model_4/conv2d_37/Conv2D_bn_offset", "shape": [72], "dtype": "float32"}, {"name": "StatefulPartitionedCall/model_4/depthwise_conv2d_27/depthwise_weights", "shape": [3, 3, 72, 1], "dtype": "float32"}, {"name": "StatefulPartitionedCall/model_4/conv2d_38/Conv2D_weights", "shape": [1, 1, 72, 72], "dtype": "float32"}, {"name": "StatefulPartitionedCall/model_4/conv2d_44/Conv2D_bn_offset", "shape": [16], "dtype": "float32"}, {"name": "StatefulPartitionedCall/model_4/conv2d_38/Conv2D_bn_offset", "shape": [72], "dtype": "float32"}]}]}